{
  "format": "layers-model",
  "generatedBy": "keras v2.4.0",
  "convertedBy": "TensorFlow.js Converter v3.14.0",
  "modelTopology": {
    "keras_version": "2.4.0",
    "backend": "tensorflow",
    "model_config": {
      "class_name": "Functional",
      "config": {
        "name": "functional_1",
        "layers": [
          {
            "class_name": "InputLayer",
            "config": {
              "batch_input_shape": [null, 416, 416, 3],
              "dtype": "float32",
              "sparse": false,
              "ragged": false,
              "name": "input_1"
            },
            "name": "input_1",
            "inbound_nodes": []
          },
          {
            "class_name": "Conv2D",
            "config": {
              "name": "conv2d",
              "trainable": true,
              "dtype": "float32",
              "filters": 32,
              "kernel_size": [3, 3],
              "strides": [1, 1],
              "padding": "same",
              "data_format": "channels_last",
              "dilation_rate": [1, 1],
              "groups": 1,
              "activation": "linear",
              "use_bias": false,
              "kernel_initializer": {
                "class_name": "RandomNormal",
                "config": { "mean": 0.0, "stddev": 0.01, "seed": null }
              },
              "bias_initializer": {
                "class_name": "Constant",
                "config": { "value": 0.0 }
              },
              "kernel_regularizer": {
                "class_name": "L1L2",
                "config": { "l2": 0.0005000000237487257 }
              },
              "bias_regularizer": null,
              "activity_regularizer": null,
              "kernel_constraint": null,
              "bias_constraint": null
            },
            "name": "conv2d",
            "inbound_nodes": [[["input_1", 0, 0, {}]]]
          },
          {
            "class_name": "BatchNormalization",
            "config": {
              "name": "batch_normalization",
              "trainable": true,
              "dtype": "float32",
              "axis": [3],
              "momentum": 0.99,
              "epsilon": 0.001,
              "center": true,
              "scale": true,
              "beta_initializer": { "class_name": "Zeros", "config": {} },
              "gamma_initializer": { "class_name": "Ones", "config": {} },
              "moving_mean_initializer": {
                "class_name": "Zeros",
                "config": {}
              },
              "moving_variance_initializer": {
                "class_name": "Ones",
                "config": {}
              },
              "beta_regularizer": null,
              "gamma_regularizer": null,
              "beta_constraint": null,
              "gamma_constraint": null
            },
            "name": "batch_normalization",
            "inbound_nodes": [[["conv2d", 0, 0, {}]]]
          },
          {
            "class_name": "TensorFlowOpLayer",
            "config": {
              "name": "Softplus",
              "trainable": true,
              "dtype": "float32",
              "node_def": {
                "name": "Softplus",
                "op": "Softplus",
                "input": ["batch_normalization/FusedBatchNormV3"],
                "attr": { "T": { "type": "DT_FLOAT" } }
              },
              "constants": {}
            },
            "name": "tf_op_layer_Softplus",
            "inbound_nodes": [[["batch_normalization", 0, 0, {}]]]
          },
          {
            "class_name": "TensorFlowOpLayer1",
            "config": {
              "name": "Tanh",
              "trainable": true,
              "dtype": "float32",
              "node_def": {
                "name": "Tanh",
                "op": "Tanh",
                "input": ["Softplus"],
                "attr": { "T": { "type": "DT_FLOAT" } }
              },
              "constants": {}
            },
            "name": "tf_op_layer_Tanh",
            "inbound_nodes": [[["tf_op_layer_Softplus", 0, 0, {}]]]
          },
          {
            "class_name": "TensorFlowOpLayer2",
            "config": {
              "name": "Mul",
              "trainable": true,
              "dtype": "float32",
              "node_def": {
                "name": "Mul",
                "op": "Mul",
                "input": ["batch_normalization/FusedBatchNormV3", "Tanh"],
                "attr": { "T": { "type": "DT_FLOAT" } }
              },
              "constants": {}
            },
            "name": "tf_op_layer_Mul",
            "inbound_nodes": [
              [
                ["batch_normalization", 0, 0, {}],
                ["tf_op_layer_Tanh", 0, 0, {}]
              ]
            ]
          },
          {
            "class_name": "ZeroPadding2D",
            "config": {
              "name": "zero_padding2d",
              "trainable": true,
              "dtype": "float32",
              "padding": [
                [1, 0],
                [1, 0]
              ],
              "data_format": "channels_last"
            },
            "name": "zero_padding2d",
            "inbound_nodes": [[["tf_op_layer_Mul", 0, 0, {}]]]
          },
          {
            "class_name": "Conv2D",
            "config": {
              "name": "conv2d_1",
              "trainable": true,
              "dtype": "float32",
              "filters": 64,
              "kernel_size": [3, 3],
              "strides": [2, 2],
              "padding": "valid",
              "data_format": "channels_last",
              "dilation_rate": [1, 1],
              "groups": 1,
              "activation": "linear",
              "use_bias": false,
              "kernel_initializer": {
                "class_name": "RandomNormal",
                "config": { "mean": 0.0, "stddev": 0.01, "seed": null }
              },
              "bias_initializer": {
                "class_name": "Constant",
                "config": { "value": 0.0 }
              },
              "kernel_regularizer": {
                "class_name": "L1L2",
                "config": { "l2": 0.0005000000237487257 }
              },
              "bias_regularizer": null,
              "activity_regularizer": null,
              "kernel_constraint": null,
              "bias_constraint": null
            },
            "name": "conv2d_1",
            "inbound_nodes": [[["zero_padding2d", 0, 0, {}]]]
          },
          {
            "class_name": "BatchNormalization",
            "config": {
              "name": "batch_normalization_1",
              "trainable": true,
              "dtype": "float32",
              "axis": [3],
              "momentum": 0.99,
              "epsilon": 0.001,
              "center": true,
              "scale": true,
              "beta_initializer": { "class_name": "Zeros", "config": {} },
              "gamma_initializer": { "class_name": "Ones", "config": {} },
              "moving_mean_initializer": {
                "class_name": "Zeros",
                "config": {}
              },
              "moving_variance_initializer": {
                "class_name": "Ones",
                "config": {}
              },
              "beta_regularizer": null,
              "gamma_regularizer": null,
              "beta_constraint": null,
              "gamma_constraint": null
            },
            "name": "batch_normalization_1",
            "inbound_nodes": [[["conv2d_1", 0, 0, {}]]]
          },
          {
            "class_name": "TensorFlowOpLayer3",
            "config": {
              "name": "Softplus_1",
              "trainable": true,
              "dtype": "float32",
              "node_def": {
                "name": "Softplus_1",
                "op": "Softplus",
                "input": ["batch_normalization_1/FusedBatchNormV3"],
                "attr": { "T": { "type": "DT_FLOAT" } }
              },
              "constants": {}
            },
            "name": "tf_op_layer_Softplus_1",
            "inbound_nodes": [[["batch_normalization_1", 0, 0, {}]]]
          },
          {
            "class_name": "TensorFlowOpLayer4",
            "config": {
              "name": "Tanh_1",
              "trainable": true,
              "dtype": "float32",
              "node_def": {
                "name": "Tanh_1",
                "op": "Tanh",
                "input": ["Softplus_1"],
                "attr": { "T": { "type": "DT_FLOAT" } }
              },
              "constants": {}
            },
            "name": "tf_op_layer_Tanh_1",
            "inbound_nodes": [[["tf_op_layer_Softplus_1", 0, 0, {}]]]
          },
          {
            "class_name": "TensorFlowOpLayer5",
            "config": {
              "name": "Mul_1",
              "trainable": true,
              "dtype": "float32",
              "node_def": {
                "name": "Mul_1",
                "op": "Mul",
                "input": ["batch_normalization_1/FusedBatchNormV3", "Tanh_1"],
                "attr": { "T": { "type": "DT_FLOAT" } }
              },
              "constants": {}
            },
            "name": "tf_op_layer_Mul_1",
            "inbound_nodes": [
              [
                ["batch_normalization_1", 0, 0, {}],
                ["tf_op_layer_Tanh_1", 0, 0, {}]
              ]
            ]
          },
          {
            "class_name": "Conv2D",
            "config": {
              "name": "conv2d_3",
              "trainable": true,
              "dtype": "float32",
              "filters": 64,
              "kernel_size": [1, 1],
              "strides": [1, 1],
              "padding": "same",
              "data_format": "channels_last",
              "dilation_rate": [1, 1],
              "groups": 1,
              "activation": "linear",
              "use_bias": false,
              "kernel_initializer": {
                "class_name": "RandomNormal",
                "config": { "mean": 0.0, "stddev": 0.01, "seed": null }
              },
              "bias_initializer": {
                "class_name": "Constant",
                "config": { "value": 0.0 }
              },
              "kernel_regularizer": {
                "class_name": "L1L2",
                "config": { "l2": 0.0005000000237487257 }
              },
              "bias_regularizer": null,
              "activity_regularizer": null,
              "kernel_constraint": null,
              "bias_constraint": null
            },
            "name": "conv2d_3",
            "inbound_nodes": [[["tf_op_layer_Mul_1", 0, 0, {}]]]
          },
          {
            "class_name": "BatchNormalization",
            "config": {
              "name": "batch_normalization_3",
              "trainable": true,
              "dtype": "float32",
              "axis": [3],
              "momentum": 0.99,
              "epsilon": 0.001,
              "center": true,
              "scale": true,
              "beta_initializer": { "class_name": "Zeros", "config": {} },
              "gamma_initializer": { "class_name": "Ones", "config": {} },
              "moving_mean_initializer": {
                "class_name": "Zeros",
                "config": {}
              },
              "moving_variance_initializer": {
                "class_name": "Ones",
                "config": {}
              },
              "beta_regularizer": null,
              "gamma_regularizer": null,
              "beta_constraint": null,
              "gamma_constraint": null
            },
            "name": "batch_normalization_3",
            "inbound_nodes": [[["conv2d_3", 0, 0, {}]]]
          },
          {
            "class_name": "TensorFlowOpLayer6",
            "config": {
              "name": "Softplus_3",
              "trainable": true,
              "dtype": "float32",
              "node_def": {
                "name": "Softplus_3",
                "op": "Softplus",
                "input": ["batch_normalization_3/FusedBatchNormV3"],
                "attr": { "T": { "type": "DT_FLOAT" } }
              },
              "constants": {}
            },
            "name": "tf_op_layer_Softplus_3",
            "inbound_nodes": [[["batch_normalization_3", 0, 0, {}]]]
          },
          {
            "class_name": "TensorFlowOpLayer7",
            "config": {
              "name": "Tanh_3",
              "trainable": true,
              "dtype": "float32",
              "node_def": {
                "name": "Tanh_3",
                "op": "Tanh",
                "input": ["Softplus_3"],
                "attr": { "T": { "type": "DT_FLOAT" } }
              },
              "constants": {}
            },
            "name": "tf_op_layer_Tanh_3",
            "inbound_nodes": [[["tf_op_layer_Softplus_3", 0, 0, {}]]]
          },
          {
            "class_name": "TensorFlowOpLayer8",
            "config": {
              "name": "Mul_3",
              "trainable": true,
              "dtype": "float32",
              "node_def": {
                "name": "Mul_3",
                "op": "Mul",
                "input": ["batch_normalization_3/FusedBatchNormV3", "Tanh_3"],
                "attr": { "T": { "type": "DT_FLOAT" } }
              },
              "constants": {}
            },
            "name": "tf_op_layer_Mul_3",
            "inbound_nodes": [
              [
                ["batch_normalization_3", 0, 0, {}],
                ["tf_op_layer_Tanh_3", 0, 0, {}]
              ]
            ]
          },
          {
            "class_name": "Conv2D",
            "config": {
              "name": "conv2d_4",
              "trainable": true,
              "dtype": "float32",
              "filters": 32,
              "kernel_size": [1, 1],
              "strides": [1, 1],
              "padding": "same",
              "data_format": "channels_last",
              "dilation_rate": [1, 1],
              "groups": 1,
              "activation": "linear",
              "use_bias": false,
              "kernel_initializer": {
                "class_name": "RandomNormal",
                "config": { "mean": 0.0, "stddev": 0.01, "seed": null }
              },
              "bias_initializer": {
                "class_name": "Constant",
                "config": { "value": 0.0 }
              },
              "kernel_regularizer": {
                "class_name": "L1L2",
                "config": { "l2": 0.0005000000237487257 }
              },
              "bias_regularizer": null,
              "activity_regularizer": null,
              "kernel_constraint": null,
              "bias_constraint": null
            },
            "name": "conv2d_4",
            "inbound_nodes": [[["tf_op_layer_Mul_3", 0, 0, {}]]]
          },
          {
            "class_name": "BatchNormalization",
            "config": {
              "name": "batch_normalization_4",
              "trainable": true,
              "dtype": "float32",
              "axis": [3],
              "momentum": 0.99,
              "epsilon": 0.001,
              "center": true,
              "scale": true,
              "beta_initializer": { "class_name": "Zeros", "config": {} },
              "gamma_initializer": { "class_name": "Ones", "config": {} },
              "moving_mean_initializer": {
                "class_name": "Zeros",
                "config": {}
              },
              "moving_variance_initializer": {
                "class_name": "Ones",
                "config": {}
              },
              "beta_regularizer": null,
              "gamma_regularizer": null,
              "beta_constraint": null,
              "gamma_constraint": null
            },
            "name": "batch_normalization_4",
            "inbound_nodes": [[["conv2d_4", 0, 0, {}]]]
          },
          {
            "class_name": "TensorFlowOpLayer9",
            "config": {
              "name": "Softplus_4",
              "trainable": true,
              "dtype": "float32",
              "node_def": {
                "name": "Softplus_4",
                "op": "Softplus",
                "input": ["batch_normalization_4/FusedBatchNormV3"],
                "attr": { "T": { "type": "DT_FLOAT" } }
              },
              "constants": {}
            },
            "name": "tf_op_layer_Softplus_4",
            "inbound_nodes": [[["batch_normalization_4", 0, 0, {}]]]
          },
          {
            "class_name": "TensorFlowOpLayer10",
            "config": {
              "name": "Tanh_4",
              "trainable": true,
              "dtype": "float32",
              "node_def": {
                "name": "Tanh_4",
                "op": "Tanh",
                "input": ["Softplus_4"],
                "attr": { "T": { "type": "DT_FLOAT" } }
              },
              "constants": {}
            },
            "name": "tf_op_layer_Tanh_4",
            "inbound_nodes": [[["tf_op_layer_Softplus_4", 0, 0, {}]]]
          },
          {
            "class_name": "TensorFlowOpLayer11",
            "config": {
              "name": "Mul_4",
              "trainable": true,
              "dtype": "float32",
              "node_def": {
                "name": "Mul_4",
                "op": "Mul",
                "input": ["batch_normalization_4/FusedBatchNormV3", "Tanh_4"],
                "attr": { "T": { "type": "DT_FLOAT" } }
              },
              "constants": {}
            },
            "name": "tf_op_layer_Mul_4",
            "inbound_nodes": [
              [
                ["batch_normalization_4", 0, 0, {}],
                ["tf_op_layer_Tanh_4", 0, 0, {}]
              ]
            ]
          },
          {
            "class_name": "Conv2D",
            "config": {
              "name": "conv2d_5",
              "trainable": true,
              "dtype": "float32",
              "filters": 64,
              "kernel_size": [3, 3],
              "strides": [1, 1],
              "padding": "same",
              "data_format": "channels_last",
              "dilation_rate": [1, 1],
              "groups": 1,
              "activation": "linear",
              "use_bias": false,
              "kernel_initializer": {
                "class_name": "RandomNormal",
                "config": { "mean": 0.0, "stddev": 0.01, "seed": null }
              },
              "bias_initializer": {
                "class_name": "Constant",
                "config": { "value": 0.0 }
              },
              "kernel_regularizer": {
                "class_name": "L1L2",
                "config": { "l2": 0.0005000000237487257 }
              },
              "bias_regularizer": null,
              "activity_regularizer": null,
              "kernel_constraint": null,
              "bias_constraint": null
            },
            "name": "conv2d_5",
            "inbound_nodes": [[["tf_op_layer_Mul_4", 0, 0, {}]]]
          },
          {
            "class_name": "BatchNormalization",
            "config": {
              "name": "batch_normalization_5",
              "trainable": true,
              "dtype": "float32",
              "axis": [3],
              "momentum": 0.99,
              "epsilon": 0.001,
              "center": true,
              "scale": true,
              "beta_initializer": { "class_name": "Zeros", "config": {} },
              "gamma_initializer": { "class_name": "Ones", "config": {} },
              "moving_mean_initializer": {
                "class_name": "Zeros",
                "config": {}
              },
              "moving_variance_initializer": {
                "class_name": "Ones",
                "config": {}
              },
              "beta_regularizer": null,
              "gamma_regularizer": null,
              "beta_constraint": null,
              "gamma_constraint": null
            },
            "name": "batch_normalization_5",
            "inbound_nodes": [[["conv2d_5", 0, 0, {}]]]
          },
          {
            "class_name": "TensorFlowOpLayer12",
            "config": {
              "name": "Softplus_5",
              "trainable": true,
              "dtype": "float32",
              "node_def": {
                "name": "Softplus_5",
                "op": "Softplus",
                "input": ["batch_normalization_5/FusedBatchNormV3"],
                "attr": { "T": { "type": "DT_FLOAT" } }
              },
              "constants": {}
            },
            "name": "tf_op_layer_Softplus_5",
            "inbound_nodes": [[["batch_normalization_5", 0, 0, {}]]]
          },
          {
            "class_name": "TensorFlowOpLayer13",
            "config": {
              "name": "Tanh_5",
              "trainable": true,
              "dtype": "float32",
              "node_def": {
                "name": "Tanh_5",
                "op": "Tanh",
                "input": ["Softplus_5"],
                "attr": { "T": { "type": "DT_FLOAT" } }
              },
              "constants": {}
            },
            "name": "tf_op_layer_Tanh_5",
            "inbound_nodes": [[["tf_op_layer_Softplus_5", 0, 0, {}]]]
          },
          {
            "class_name": "TensorFlowOpLayer14",
            "config": {
              "name": "Mul_5",
              "trainable": true,
              "dtype": "float32",
              "node_def": {
                "name": "Mul_5",
                "op": "Mul",
                "input": ["batch_normalization_5/FusedBatchNormV3", "Tanh_5"],
                "attr": { "T": { "type": "DT_FLOAT" } }
              },
              "constants": {}
            },
            "name": "tf_op_layer_Mul_5",
            "inbound_nodes": [
              [
                ["batch_normalization_5", 0, 0, {}],
                ["tf_op_layer_Tanh_5", 0, 0, {}]
              ]
            ]
          },
          {
            "class_name": "TensorFlowOpLayer15",
            "config": {
              "name": "AddV2",
              "trainable": true,
              "dtype": "float32",
              "node_def": {
                "name": "AddV2",
                "op": "AddV2",
                "input": ["Mul_3", "Mul_5"],
                "attr": { "T": { "type": "DT_FLOAT" } }
              },
              "constants": {}
            },
            "name": "tf_op_layer_AddV2",
            "inbound_nodes": [
              [
                ["tf_op_layer_Mul_3", 0, 0, {}],
                ["tf_op_layer_Mul_5", 0, 0, {}]
              ]
            ]
          },
          {
            "class_name": "Conv2D",
            "config": {
              "name": "conv2d_6",
              "trainable": true,
              "dtype": "float32",
              "filters": 64,
              "kernel_size": [1, 1],
              "strides": [1, 1],
              "padding": "same",
              "data_format": "channels_last",
              "dilation_rate": [1, 1],
              "groups": 1,
              "activation": "linear",
              "use_bias": false,
              "kernel_initializer": {
                "class_name": "RandomNormal",
                "config": { "mean": 0.0, "stddev": 0.01, "seed": null }
              },
              "bias_initializer": {
                "class_name": "Constant",
                "config": { "value": 0.0 }
              },
              "kernel_regularizer": {
                "class_name": "L1L2",
                "config": { "l2": 0.0005000000237487257 }
              },
              "bias_regularizer": null,
              "activity_regularizer": null,
              "kernel_constraint": null,
              "bias_constraint": null
            },
            "name": "conv2d_6",
            "inbound_nodes": [[["tf_op_layer_AddV2", 0, 0, {}]]]
          },
          {
            "class_name": "Conv2D",
            "config": {
              "name": "conv2d_2",
              "trainable": true,
              "dtype": "float32",
              "filters": 64,
              "kernel_size": [1, 1],
              "strides": [1, 1],
              "padding": "same",
              "data_format": "channels_last",
              "dilation_rate": [1, 1],
              "groups": 1,
              "activation": "linear",
              "use_bias": false,
              "kernel_initializer": {
                "class_name": "RandomNormal",
                "config": { "mean": 0.0, "stddev": 0.01, "seed": null }
              },
              "bias_initializer": {
                "class_name": "Constant",
                "config": { "value": 0.0 }
              },
              "kernel_regularizer": {
                "class_name": "L1L2",
                "config": { "l2": 0.0005000000237487257 }
              },
              "bias_regularizer": null,
              "activity_regularizer": null,
              "kernel_constraint": null,
              "bias_constraint": null
            },
            "name": "conv2d_2",
            "inbound_nodes": [[["tf_op_layer_Mul_1", 0, 0, {}]]]
          },
          {
            "class_name": "BatchNormalization",
            "config": {
              "name": "batch_normalization_6",
              "trainable": true,
              "dtype": "float32",
              "axis": [3],
              "momentum": 0.99,
              "epsilon": 0.001,
              "center": true,
              "scale": true,
              "beta_initializer": { "class_name": "Zeros", "config": {} },
              "gamma_initializer": { "class_name": "Ones", "config": {} },
              "moving_mean_initializer": {
                "class_name": "Zeros",
                "config": {}
              },
              "moving_variance_initializer": {
                "class_name": "Ones",
                "config": {}
              },
              "beta_regularizer": null,
              "gamma_regularizer": null,
              "beta_constraint": null,
              "gamma_constraint": null
            },
            "name": "batch_normalization_6",
            "inbound_nodes": [[["conv2d_6", 0, 0, {}]]]
          },
          {
            "class_name": "BatchNormalization",
            "config": {
              "name": "batch_normalization_2",
              "trainable": true,
              "dtype": "float32",
              "axis": [3],
              "momentum": 0.99,
              "epsilon": 0.001,
              "center": true,
              "scale": true,
              "beta_initializer": { "class_name": "Zeros", "config": {} },
              "gamma_initializer": { "class_name": "Ones", "config": {} },
              "moving_mean_initializer": {
                "class_name": "Zeros",
                "config": {}
              },
              "moving_variance_initializer": {
                "class_name": "Ones",
                "config": {}
              },
              "beta_regularizer": null,
              "gamma_regularizer": null,
              "beta_constraint": null,
              "gamma_constraint": null
            },
            "name": "batch_normalization_2",
            "inbound_nodes": [[["conv2d_2", 0, 0, {}]]]
          },
          {
            "class_name": "TensorFlowOpLayer16",
            "config": {
              "name": "Softplus_6",
              "trainable": true,
              "dtype": "float32",
              "node_def": {
                "name": "Softplus_6",
                "op": "Softplus",
                "input": ["batch_normalization_6/FusedBatchNormV3"],
                "attr": { "T": { "type": "DT_FLOAT" } }
              },
              "constants": {}
            },
            "name": "tf_op_layer_Softplus_6",
            "inbound_nodes": [[["batch_normalization_6", 0, 0, {}]]]
          },
          {
            "class_name": "TensorFlowOpLayer17",
            "config": {
              "name": "Softplus_2",
              "trainable": true,
              "dtype": "float32",
              "node_def": {
                "name": "Softplus_2",
                "op": "Softplus",
                "input": ["batch_normalization_2/FusedBatchNormV3"],
                "attr": { "T": { "type": "DT_FLOAT" } }
              },
              "constants": {}
            },
            "name": "tf_op_layer_Softplus_2",
            "inbound_nodes": [[["batch_normalization_2", 0, 0, {}]]]
          },
          {
            "class_name": "TensorFlowOpLayer18",
            "config": {
              "name": "Tanh_6",
              "trainable": true,
              "dtype": "float32",
              "node_def": {
                "name": "Tanh_6",
                "op": "Tanh",
                "input": ["Softplus_6"],
                "attr": { "T": { "type": "DT_FLOAT" } }
              },
              "constants": {}
            },
            "name": "tf_op_layer_Tanh_6",
            "inbound_nodes": [[["tf_op_layer_Softplus_6", 0, 0, {}]]]
          },
          {
            "class_name": "TensorFlowOpLayer19",
            "config": {
              "name": "Tanh_2",
              "trainable": true,
              "dtype": "float32",
              "node_def": {
                "name": "Tanh_2",
                "op": "Tanh",
                "input": ["Softplus_2"],
                "attr": { "T": { "type": "DT_FLOAT" } }
              },
              "constants": {}
            },
            "name": "tf_op_layer_Tanh_2",
            "inbound_nodes": [[["tf_op_layer_Softplus_2", 0, 0, {}]]]
          },
          {
            "class_name": "TensorFlowOpLayer20",
            "config": {
              "name": "Mul_6",
              "trainable": true,
              "dtype": "float32",
              "node_def": {
                "name": "Mul_6",
                "op": "Mul",
                "input": ["batch_normalization_6/FusedBatchNormV3", "Tanh_6"],
                "attr": { "T": { "type": "DT_FLOAT" } }
              },
              "constants": {}
            },
            "name": "tf_op_layer_Mul_6",
            "inbound_nodes": [
              [
                ["batch_normalization_6", 0, 0, {}],
                ["tf_op_layer_Tanh_6", 0, 0, {}]
              ]
            ]
          },
          {
            "class_name": "TensorFlowOpLayer21",
            "config": {
              "name": "Mul_2",
              "trainable": true,
              "dtype": "float32",
              "node_def": {
                "name": "Mul_2",
                "op": "Mul",
                "input": ["batch_normalization_2/FusedBatchNormV3", "Tanh_2"],
                "attr": { "T": { "type": "DT_FLOAT" } }
              },
              "constants": {}
            },
            "name": "tf_op_layer_Mul_2",
            "inbound_nodes": [
              [
                ["batch_normalization_2", 0, 0, {}],
                ["tf_op_layer_Tanh_2", 0, 0, {}]
              ]
            ]
          },
          {
            "class_name": "TensorFlowOpLayer22",
            "config": {
              "name": "concat",
              "trainable": true,
              "dtype": "float32",
              "node_def": {
                "name": "concat",
                "op": "ConcatV2",
                "input": ["Mul_6", "Mul_2", "concat/axis"],
                "attr": {
                  "Tidx": { "type": "DT_INT32" },
                  "N": { "i": "2" },
                  "T": { "type": "DT_FLOAT" }
                }
              },
              "constants": { "2": -1 }
            },
            "name": "tf_op_layer_concat",
            "inbound_nodes": [
              [
                ["tf_op_layer_Mul_6", 0, 0, {}],
                ["tf_op_layer_Mul_2", 0, 0, {}]
              ]
            ]
          },
          {
            "class_name": "Conv2D",
            "config": {
              "name": "conv2d_7",
              "trainable": true,
              "dtype": "float32",
              "filters": 64,
              "kernel_size": [1, 1],
              "strides": [1, 1],
              "padding": "same",
              "data_format": "channels_last",
              "dilation_rate": [1, 1],
              "groups": 1,
              "activation": "linear",
              "use_bias": false,
              "kernel_initializer": {
                "class_name": "RandomNormal",
                "config": { "mean": 0.0, "stddev": 0.01, "seed": null }
              },
              "bias_initializer": {
                "class_name": "Constant",
                "config": { "value": 0.0 }
              },
              "kernel_regularizer": {
                "class_name": "L1L2",
                "config": { "l2": 0.0005000000237487257 }
              },
              "bias_regularizer": null,
              "activity_regularizer": null,
              "kernel_constraint": null,
              "bias_constraint": null
            },
            "name": "conv2d_7",
            "inbound_nodes": [[["tf_op_layer_concat", 0, 0, {}]]]
          },
          {
            "class_name": "BatchNormalization",
            "config": {
              "name": "batch_normalization_7",
              "trainable": true,
              "dtype": "float32",
              "axis": [3],
              "momentum": 0.99,
              "epsilon": 0.001,
              "center": true,
              "scale": true,
              "beta_initializer": { "class_name": "Zeros", "config": {} },
              "gamma_initializer": { "class_name": "Ones", "config": {} },
              "moving_mean_initializer": {
                "class_name": "Zeros",
                "config": {}
              },
              "moving_variance_initializer": {
                "class_name": "Ones",
                "config": {}
              },
              "beta_regularizer": null,
              "gamma_regularizer": null,
              "beta_constraint": null,
              "gamma_constraint": null
            },
            "name": "batch_normalization_7",
            "inbound_nodes": [[["conv2d_7", 0, 0, {}]]]
          },
          {
            "class_name": "TensorFlowOpLayer23",
            "config": {
              "name": "Softplus_7",
              "trainable": true,
              "dtype": "float32",
              "node_def": {
                "name": "Softplus_7",
                "op": "Softplus",
                "input": ["batch_normalization_7/FusedBatchNormV3"],
                "attr": { "T": { "type": "DT_FLOAT" } }
              },
              "constants": {}
            },
            "name": "tf_op_layer_Softplus_7",
            "inbound_nodes": [[["batch_normalization_7", 0, 0, {}]]]
          },
          {
            "class_name": "TensorFlowOpLayer24",
            "config": {
              "name": "Tanh_7",
              "trainable": true,
              "dtype": "float32",
              "node_def": {
                "name": "Tanh_7",
                "op": "Tanh",
                "input": ["Softplus_7"],
                "attr": { "T": { "type": "DT_FLOAT" } }
              },
              "constants": {}
            },
            "name": "tf_op_layer_Tanh_7",
            "inbound_nodes": [[["tf_op_layer_Softplus_7", 0, 0, {}]]]
          },
          {
            "class_name": "TensorFlowOpLayer25",
            "config": {
              "name": "Mul_7",
              "trainable": true,
              "dtype": "float32",
              "node_def": {
                "name": "Mul_7",
                "op": "Mul",
                "input": ["batch_normalization_7/FusedBatchNormV3", "Tanh_7"],
                "attr": { "T": { "type": "DT_FLOAT" } }
              },
              "constants": {}
            },
            "name": "tf_op_layer_Mul_7",
            "inbound_nodes": [
              [
                ["batch_normalization_7", 0, 0, {}],
                ["tf_op_layer_Tanh_7", 0, 0, {}]
              ]
            ]
          },
          {
            "class_name": "ZeroPadding2D",
            "config": {
              "name": "zero_padding2d_1",
              "trainable": true,
              "dtype": "float32",
              "padding": [
                [1, 0],
                [1, 0]
              ],
              "data_format": "channels_last"
            },
            "name": "zero_padding2d_1",
            "inbound_nodes": [[["tf_op_layer_Mul_7", 0, 0, {}]]]
          },
          {
            "class_name": "Conv2D",
            "config": {
              "name": "conv2d_8",
              "trainable": true,
              "dtype": "float32",
              "filters": 128,
              "kernel_size": [3, 3],
              "strides": [2, 2],
              "padding": "valid",
              "data_format": "channels_last",
              "dilation_rate": [1, 1],
              "groups": 1,
              "activation": "linear",
              "use_bias": false,
              "kernel_initializer": {
                "class_name": "RandomNormal",
                "config": { "mean": 0.0, "stddev": 0.01, "seed": null }
              },
              "bias_initializer": {
                "class_name": "Constant",
                "config": { "value": 0.0 }
              },
              "kernel_regularizer": {
                "class_name": "L1L2",
                "config": { "l2": 0.0005000000237487257 }
              },
              "bias_regularizer": null,
              "activity_regularizer": null,
              "kernel_constraint": null,
              "bias_constraint": null
            },
            "name": "conv2d_8",
            "inbound_nodes": [[["zero_padding2d_1", 0, 0, {}]]]
          },
          {
            "class_name": "BatchNormalization",
            "config": {
              "name": "batch_normalization_8",
              "trainable": true,
              "dtype": "float32",
              "axis": [3],
              "momentum": 0.99,
              "epsilon": 0.001,
              "center": true,
              "scale": true,
              "beta_initializer": { "class_name": "Zeros", "config": {} },
              "gamma_initializer": { "class_name": "Ones", "config": {} },
              "moving_mean_initializer": {
                "class_name": "Zeros",
                "config": {}
              },
              "moving_variance_initializer": {
                "class_name": "Ones",
                "config": {}
              },
              "beta_regularizer": null,
              "gamma_regularizer": null,
              "beta_constraint": null,
              "gamma_constraint": null
            },
            "name": "batch_normalization_8",
            "inbound_nodes": [[["conv2d_8", 0, 0, {}]]]
          },
          {
            "class_name": "TensorFlowOpLayer26",
            "config": {
              "name": "Softplus_8",
              "trainable": true,
              "dtype": "float32",
              "node_def": {
                "name": "Softplus_8",
                "op": "Softplus",
                "input": ["batch_normalization_8/FusedBatchNormV3"],
                "attr": { "T": { "type": "DT_FLOAT" } }
              },
              "constants": {}
            },
            "name": "tf_op_layer_Softplus_8",
            "inbound_nodes": [[["batch_normalization_8", 0, 0, {}]]]
          },
          {
            "class_name": "TensorFlowOpLayer27",
            "config": {
              "name": "Tanh_8",
              "trainable": true,
              "dtype": "float32",
              "node_def": {
                "name": "Tanh_8",
                "op": "Tanh",
                "input": ["Softplus_8"],
                "attr": { "T": { "type": "DT_FLOAT" } }
              },
              "constants": {}
            },
            "name": "tf_op_layer_Tanh_8",
            "inbound_nodes": [[["tf_op_layer_Softplus_8", 0, 0, {}]]]
          },
          {
            "class_name": "TensorFlowOpLayer28",
            "config": {
              "name": "Mul_8",
              "trainable": true,
              "dtype": "float32",
              "node_def": {
                "name": "Mul_8",
                "op": "Mul",
                "input": ["batch_normalization_8/FusedBatchNormV3", "Tanh_8"],
                "attr": { "T": { "type": "DT_FLOAT" } }
              },
              "constants": {}
            },
            "name": "tf_op_layer_Mul_8",
            "inbound_nodes": [
              [
                ["batch_normalization_8", 0, 0, {}],
                ["tf_op_layer_Tanh_8", 0, 0, {}]
              ]
            ]
          },
          {
            "class_name": "Conv2D",
            "config": {
              "name": "conv2d_10",
              "trainable": true,
              "dtype": "float32",
              "filters": 64,
              "kernel_size": [1, 1],
              "strides": [1, 1],
              "padding": "same",
              "data_format": "channels_last",
              "dilation_rate": [1, 1],
              "groups": 1,
              "activation": "linear",
              "use_bias": false,
              "kernel_initializer": {
                "class_name": "RandomNormal",
                "config": { "mean": 0.0, "stddev": 0.01, "seed": null }
              },
              "bias_initializer": {
                "class_name": "Constant",
                "config": { "value": 0.0 }
              },
              "kernel_regularizer": {
                "class_name": "L1L2",
                "config": { "l2": 0.0005000000237487257 }
              },
              "bias_regularizer": null,
              "activity_regularizer": null,
              "kernel_constraint": null,
              "bias_constraint": null
            },
            "name": "conv2d_10",
            "inbound_nodes": [[["tf_op_layer_Mul_8", 0, 0, {}]]]
          },
          {
            "class_name": "BatchNormalization",
            "config": {
              "name": "batch_normalization_10",
              "trainable": true,
              "dtype": "float32",
              "axis": [3],
              "momentum": 0.99,
              "epsilon": 0.001,
              "center": true,
              "scale": true,
              "beta_initializer": { "class_name": "Zeros", "config": {} },
              "gamma_initializer": { "class_name": "Ones", "config": {} },
              "moving_mean_initializer": {
                "class_name": "Zeros",
                "config": {}
              },
              "moving_variance_initializer": {
                "class_name": "Ones",
                "config": {}
              },
              "beta_regularizer": null,
              "gamma_regularizer": null,
              "beta_constraint": null,
              "gamma_constraint": null
            },
            "name": "batch_normalization_10",
            "inbound_nodes": [[["conv2d_10", 0, 0, {}]]]
          },
          {
            "class_name": "TensorFlowOpLayer29",
            "config": {
              "name": "Softplus_10",
              "trainable": true,
              "dtype": "float32",
              "node_def": {
                "name": "Softplus_10",
                "op": "Softplus",
                "input": ["batch_normalization_10/FusedBatchNormV3"],
                "attr": { "T": { "type": "DT_FLOAT" } }
              },
              "constants": {}
            },
            "name": "tf_op_layer_Softplus_10",
            "inbound_nodes": [[["batch_normalization_10", 0, 0, {}]]]
          },
          {
            "class_name": "TensorFlowOpLayer30",
            "config": {
              "name": "Tanh_10",
              "trainable": true,
              "dtype": "float32",
              "node_def": {
                "name": "Tanh_10",
                "op": "Tanh",
                "input": ["Softplus_10"],
                "attr": { "T": { "type": "DT_FLOAT" } }
              },
              "constants": {}
            },
            "name": "tf_op_layer_Tanh_10",
            "inbound_nodes": [[["tf_op_layer_Softplus_10", 0, 0, {}]]]
          },
          {
            "class_name": "TensorFlowOpLayer31",
            "config": {
              "name": "Mul_10",
              "trainable": true,
              "dtype": "float32",
              "node_def": {
                "name": "Mul_10",
                "op": "Mul",
                "input": ["batch_normalization_10/FusedBatchNormV3", "Tanh_10"],
                "attr": { "T": { "type": "DT_FLOAT" } }
              },
              "constants": {}
            },
            "name": "tf_op_layer_Mul_10",
            "inbound_nodes": [
              [
                ["batch_normalization_10", 0, 0, {}],
                ["tf_op_layer_Tanh_10", 0, 0, {}]
              ]
            ]
          },
          {
            "class_name": "Conv2D",
            "config": {
              "name": "conv2d_11",
              "trainable": true,
              "dtype": "float32",
              "filters": 64,
              "kernel_size": [1, 1],
              "strides": [1, 1],
              "padding": "same",
              "data_format": "channels_last",
              "dilation_rate": [1, 1],
              "groups": 1,
              "activation": "linear",
              "use_bias": false,
              "kernel_initializer": {
                "class_name": "RandomNormal",
                "config": { "mean": 0.0, "stddev": 0.01, "seed": null }
              },
              "bias_initializer": {
                "class_name": "Constant",
                "config": { "value": 0.0 }
              },
              "kernel_regularizer": {
                "class_name": "L1L2",
                "config": { "l2": 0.0005000000237487257 }
              },
              "bias_regularizer": null,
              "activity_regularizer": null,
              "kernel_constraint": null,
              "bias_constraint": null
            },
            "name": "conv2d_11",
            "inbound_nodes": [[["tf_op_layer_Mul_10", 0, 0, {}]]]
          },
          {
            "class_name": "BatchNormalization",
            "config": {
              "name": "batch_normalization_11",
              "trainable": true,
              "dtype": "float32",
              "axis": [3],
              "momentum": 0.99,
              "epsilon": 0.001,
              "center": true,
              "scale": true,
              "beta_initializer": { "class_name": "Zeros", "config": {} },
              "gamma_initializer": { "class_name": "Ones", "config": {} },
              "moving_mean_initializer": {
                "class_name": "Zeros",
                "config": {}
              },
              "moving_variance_initializer": {
                "class_name": "Ones",
                "config": {}
              },
              "beta_regularizer": null,
              "gamma_regularizer": null,
              "beta_constraint": null,
              "gamma_constraint": null
            },
            "name": "batch_normalization_11",
            "inbound_nodes": [[["conv2d_11", 0, 0, {}]]]
          },
          {
            "class_name": "TensorFlowOpLayer32",
            "config": {
              "name": "Softplus_11",
              "trainable": true,
              "dtype": "float32",
              "node_def": {
                "name": "Softplus_11",
                "op": "Softplus",
                "input": ["batch_normalization_11/FusedBatchNormV3"],
                "attr": { "T": { "type": "DT_FLOAT" } }
              },
              "constants": {}
            },
            "name": "tf_op_layer_Softplus_11",
            "inbound_nodes": [[["batch_normalization_11", 0, 0, {}]]]
          },
          {
            "class_name": "TensorFlowOpLayer33",
            "config": {
              "name": "Tanh_11",
              "trainable": true,
              "dtype": "float32",
              "node_def": {
                "name": "Tanh_11",
                "op": "Tanh",
                "input": ["Softplus_11"],
                "attr": { "T": { "type": "DT_FLOAT" } }
              },
              "constants": {}
            },
            "name": "tf_op_layer_Tanh_11",
            "inbound_nodes": [[["tf_op_layer_Softplus_11", 0, 0, {}]]]
          },
          {
            "class_name": "TensorFlowOpLayer34",
            "config": {
              "name": "Mul_11",
              "trainable": true,
              "dtype": "float32",
              "node_def": {
                "name": "Mul_11",
                "op": "Mul",
                "input": ["batch_normalization_11/FusedBatchNormV3", "Tanh_11"],
                "attr": { "T": { "type": "DT_FLOAT" } }
              },
              "constants": {}
            },
            "name": "tf_op_layer_Mul_11",
            "inbound_nodes": [
              [
                ["batch_normalization_11", 0, 0, {}],
                ["tf_op_layer_Tanh_11", 0, 0, {}]
              ]
            ]
          },
          {
            "class_name": "Conv2D",
            "config": {
              "name": "conv2d_12",
              "trainable": true,
              "dtype": "float32",
              "filters": 64,
              "kernel_size": [3, 3],
              "strides": [1, 1],
              "padding": "same",
              "data_format": "channels_last",
              "dilation_rate": [1, 1],
              "groups": 1,
              "activation": "linear",
              "use_bias": false,
              "kernel_initializer": {
                "class_name": "RandomNormal",
                "config": { "mean": 0.0, "stddev": 0.01, "seed": null }
              },
              "bias_initializer": {
                "class_name": "Constant",
                "config": { "value": 0.0 }
              },
              "kernel_regularizer": {
                "class_name": "L1L2",
                "config": { "l2": 0.0005000000237487257 }
              },
              "bias_regularizer": null,
              "activity_regularizer": null,
              "kernel_constraint": null,
              "bias_constraint": null
            },
            "name": "conv2d_12",
            "inbound_nodes": [[["tf_op_layer_Mul_11", 0, 0, {}]]]
          },
          {
            "class_name": "BatchNormalization",
            "config": {
              "name": "batch_normalization_12",
              "trainable": true,
              "dtype": "float32",
              "axis": [3],
              "momentum": 0.99,
              "epsilon": 0.001,
              "center": true,
              "scale": true,
              "beta_initializer": { "class_name": "Zeros", "config": {} },
              "gamma_initializer": { "class_name": "Ones", "config": {} },
              "moving_mean_initializer": {
                "class_name": "Zeros",
                "config": {}
              },
              "moving_variance_initializer": {
                "class_name": "Ones",
                "config": {}
              },
              "beta_regularizer": null,
              "gamma_regularizer": null,
              "beta_constraint": null,
              "gamma_constraint": null
            },
            "name": "batch_normalization_12",
            "inbound_nodes": [[["conv2d_12", 0, 0, {}]]]
          },
          {
            "class_name": "TensorFlowOpLayer35",
            "config": {
              "name": "Softplus_12",
              "trainable": true,
              "dtype": "float32",
              "node_def": {
                "name": "Softplus_12",
                "op": "Softplus",
                "input": ["batch_normalization_12/FusedBatchNormV3"],
                "attr": { "T": { "type": "DT_FLOAT" } }
              },
              "constants": {}
            },
            "name": "tf_op_layer_Softplus_12",
            "inbound_nodes": [[["batch_normalization_12", 0, 0, {}]]]
          },
          {
            "class_name": "TensorFlowOpLayer36",
            "config": {
              "name": "Tanh_12",
              "trainable": true,
              "dtype": "float32",
              "node_def": {
                "name": "Tanh_12",
                "op": "Tanh",
                "input": ["Softplus_12"],
                "attr": { "T": { "type": "DT_FLOAT" } }
              },
              "constants": {}
            },
            "name": "tf_op_layer_Tanh_12",
            "inbound_nodes": [[["tf_op_layer_Softplus_12", 0, 0, {}]]]
          },
          {
            "class_name": "TensorFlowOpLayer37",
            "config": {
              "name": "Mul_12",
              "trainable": true,
              "dtype": "float32",
              "node_def": {
                "name": "Mul_12",
                "op": "Mul",
                "input": ["batch_normalization_12/FusedBatchNormV3", "Tanh_12"],
                "attr": { "T": { "type": "DT_FLOAT" } }
              },
              "constants": {}
            },
            "name": "tf_op_layer_Mul_12",
            "inbound_nodes": [
              [
                ["batch_normalization_12", 0, 0, {}],
                ["tf_op_layer_Tanh_12", 0, 0, {}]
              ]
            ]
          },
          {
            "class_name": "TensorFlowOpLayer38",
            "config": {
              "name": "AddV2_1",
              "trainable": true,
              "dtype": "float32",
              "node_def": {
                "name": "AddV2_1",
                "op": "AddV2",
                "input": ["Mul_10", "Mul_12"],
                "attr": { "T": { "type": "DT_FLOAT" } }
              },
              "constants": {}
            },
            "name": "tf_op_layer_AddV2_1",
            "inbound_nodes": [
              [
                ["tf_op_layer_Mul_10", 0, 0, {}],
                ["tf_op_layer_Mul_12", 0, 0, {}]
              ]
            ]
          },
          {
            "class_name": "Conv2D",
            "config": {
              "name": "conv2d_13",
              "trainable": true,
              "dtype": "float32",
              "filters": 64,
              "kernel_size": [1, 1],
              "strides": [1, 1],
              "padding": "same",
              "data_format": "channels_last",
              "dilation_rate": [1, 1],
              "groups": 1,
              "activation": "linear",
              "use_bias": false,
              "kernel_initializer": {
                "class_name": "RandomNormal",
                "config": { "mean": 0.0, "stddev": 0.01, "seed": null }
              },
              "bias_initializer": {
                "class_name": "Constant",
                "config": { "value": 0.0 }
              },
              "kernel_regularizer": {
                "class_name": "L1L2",
                "config": { "l2": 0.0005000000237487257 }
              },
              "bias_regularizer": null,
              "activity_regularizer": null,
              "kernel_constraint": null,
              "bias_constraint": null
            },
            "name": "conv2d_13",
            "inbound_nodes": [[["tf_op_layer_AddV2_1", 0, 0, {}]]]
          },
          {
            "class_name": "BatchNormalization",
            "config": {
              "name": "batch_normalization_13",
              "trainable": true,
              "dtype": "float32",
              "axis": [3],
              "momentum": 0.99,
              "epsilon": 0.001,
              "center": true,
              "scale": true,
              "beta_initializer": { "class_name": "Zeros", "config": {} },
              "gamma_initializer": { "class_name": "Ones", "config": {} },
              "moving_mean_initializer": {
                "class_name": "Zeros",
                "config": {}
              },
              "moving_variance_initializer": {
                "class_name": "Ones",
                "config": {}
              },
              "beta_regularizer": null,
              "gamma_regularizer": null,
              "beta_constraint": null,
              "gamma_constraint": null
            },
            "name": "batch_normalization_13",
            "inbound_nodes": [[["conv2d_13", 0, 0, {}]]]
          },
          {
            "class_name": "TensorFlowOpLayer39",
            "config": {
              "name": "Softplus_13",
              "trainable": true,
              "dtype": "float32",
              "node_def": {
                "name": "Softplus_13",
                "op": "Softplus",
                "input": ["batch_normalization_13/FusedBatchNormV3"],
                "attr": { "T": { "type": "DT_FLOAT" } }
              },
              "constants": {}
            },
            "name": "tf_op_layer_Softplus_13",
            "inbound_nodes": [[["batch_normalization_13", 0, 0, {}]]]
          },
          {
            "class_name": "TensorFlowOpLayer40",
            "config": {
              "name": "Tanh_13",
              "trainable": true,
              "dtype": "float32",
              "node_def": {
                "name": "Tanh_13",
                "op": "Tanh",
                "input": ["Softplus_13"],
                "attr": { "T": { "type": "DT_FLOAT" } }
              },
              "constants": {}
            },
            "name": "tf_op_layer_Tanh_13",
            "inbound_nodes": [[["tf_op_layer_Softplus_13", 0, 0, {}]]]
          },
          {
            "class_name": "TensorFlowOpLayer41",
            "config": {
              "name": "Mul_13",
              "trainable": true,
              "dtype": "float32",
              "node_def": {
                "name": "Mul_13",
                "op": "Mul",
                "input": ["batch_normalization_13/FusedBatchNormV3", "Tanh_13"],
                "attr": { "T": { "type": "DT_FLOAT" } }
              },
              "constants": {}
            },
            "name": "tf_op_layer_Mul_13",
            "inbound_nodes": [
              [
                ["batch_normalization_13", 0, 0, {}],
                ["tf_op_layer_Tanh_13", 0, 0, {}]
              ]
            ]
          },
          {
            "class_name": "Conv2D",
            "config": {
              "name": "conv2d_14",
              "trainable": true,
              "dtype": "float32",
              "filters": 64,
              "kernel_size": [3, 3],
              "strides": [1, 1],
              "padding": "same",
              "data_format": "channels_last",
              "dilation_rate": [1, 1],
              "groups": 1,
              "activation": "linear",
              "use_bias": false,
              "kernel_initializer": {
                "class_name": "RandomNormal",
                "config": { "mean": 0.0, "stddev": 0.01, "seed": null }
              },
              "bias_initializer": {
                "class_name": "Constant",
                "config": { "value": 0.0 }
              },
              "kernel_regularizer": {
                "class_name": "L1L2",
                "config": { "l2": 0.0005000000237487257 }
              },
              "bias_regularizer": null,
              "activity_regularizer": null,
              "kernel_constraint": null,
              "bias_constraint": null
            },
            "name": "conv2d_14",
            "inbound_nodes": [[["tf_op_layer_Mul_13", 0, 0, {}]]]
          },
          {
            "class_name": "BatchNormalization",
            "config": {
              "name": "batch_normalization_14",
              "trainable": true,
              "dtype": "float32",
              "axis": [3],
              "momentum": 0.99,
              "epsilon": 0.001,
              "center": true,
              "scale": true,
              "beta_initializer": { "class_name": "Zeros", "config": {} },
              "gamma_initializer": { "class_name": "Ones", "config": {} },
              "moving_mean_initializer": {
                "class_name": "Zeros",
                "config": {}
              },
              "moving_variance_initializer": {
                "class_name": "Ones",
                "config": {}
              },
              "beta_regularizer": null,
              "gamma_regularizer": null,
              "beta_constraint": null,
              "gamma_constraint": null
            },
            "name": "batch_normalization_14",
            "inbound_nodes": [[["conv2d_14", 0, 0, {}]]]
          },
          {
            "class_name": "TensorFlowOpLayer42",
            "config": {
              "name": "Softplus_14",
              "trainable": true,
              "dtype": "float32",
              "node_def": {
                "name": "Softplus_14",
                "op": "Softplus",
                "input": ["batch_normalization_14/FusedBatchNormV3"],
                "attr": { "T": { "type": "DT_FLOAT" } }
              },
              "constants": {}
            },
            "name": "tf_op_layer_Softplus_14",
            "inbound_nodes": [[["batch_normalization_14", 0, 0, {}]]]
          },
          {
            "class_name": "TensorFlowOpLayer43",
            "config": {
              "name": "Tanh_14",
              "trainable": true,
              "dtype": "float32",
              "node_def": {
                "name": "Tanh_14",
                "op": "Tanh",
                "input": ["Softplus_14"],
                "attr": { "T": { "type": "DT_FLOAT" } }
              },
              "constants": {}
            },
            "name": "tf_op_layer_Tanh_14",
            "inbound_nodes": [[["tf_op_layer_Softplus_14", 0, 0, {}]]]
          },
          {
            "class_name": "TensorFlowOpLayer44",
            "config": {
              "name": "Mul_14",
              "trainable": true,
              "dtype": "float32",
              "node_def": {
                "name": "Mul_14",
                "op": "Mul",
                "input": ["batch_normalization_14/FusedBatchNormV3", "Tanh_14"],
                "attr": { "T": { "type": "DT_FLOAT" } }
              },
              "constants": {}
            },
            "name": "tf_op_layer_Mul_14",
            "inbound_nodes": [
              [
                ["batch_normalization_14", 0, 0, {}],
                ["tf_op_layer_Tanh_14", 0, 0, {}]
              ]
            ]
          },
          {
            "class_name": "TensorFlowOpLayer45",
            "config": {
              "name": "AddV2_2",
              "trainable": true,
              "dtype": "float32",
              "node_def": {
                "name": "AddV2_2",
                "op": "AddV2",
                "input": ["AddV2_1", "Mul_14"],
                "attr": { "T": { "type": "DT_FLOAT" } }
              },
              "constants": {}
            },
            "name": "tf_op_layer_AddV2_2",
            "inbound_nodes": [
              [
                ["tf_op_layer_AddV2_1", 0, 0, {}],
                ["tf_op_layer_Mul_14", 0, 0, {}]
              ]
            ]
          },
          {
            "class_name": "Conv2D",
            "config": {
              "name": "conv2d_15",
              "trainable": true,
              "dtype": "float32",
              "filters": 64,
              "kernel_size": [1, 1],
              "strides": [1, 1],
              "padding": "same",
              "data_format": "channels_last",
              "dilation_rate": [1, 1],
              "groups": 1,
              "activation": "linear",
              "use_bias": false,
              "kernel_initializer": {
                "class_name": "RandomNormal",
                "config": { "mean": 0.0, "stddev": 0.01, "seed": null }
              },
              "bias_initializer": {
                "class_name": "Constant",
                "config": { "value": 0.0 }
              },
              "kernel_regularizer": {
                "class_name": "L1L2",
                "config": { "l2": 0.0005000000237487257 }
              },
              "bias_regularizer": null,
              "activity_regularizer": null,
              "kernel_constraint": null,
              "bias_constraint": null
            },
            "name": "conv2d_15",
            "inbound_nodes": [[["tf_op_layer_AddV2_2", 0, 0, {}]]]
          },
          {
            "class_name": "Conv2D",
            "config": {
              "name": "conv2d_9",
              "trainable": true,
              "dtype": "float32",
              "filters": 64,
              "kernel_size": [1, 1],
              "strides": [1, 1],
              "padding": "same",
              "data_format": "channels_last",
              "dilation_rate": [1, 1],
              "groups": 1,
              "activation": "linear",
              "use_bias": false,
              "kernel_initializer": {
                "class_name": "RandomNormal",
                "config": { "mean": 0.0, "stddev": 0.01, "seed": null }
              },
              "bias_initializer": {
                "class_name": "Constant",
                "config": { "value": 0.0 }
              },
              "kernel_regularizer": {
                "class_name": "L1L2",
                "config": { "l2": 0.0005000000237487257 }
              },
              "bias_regularizer": null,
              "activity_regularizer": null,
              "kernel_constraint": null,
              "bias_constraint": null
            },
            "name": "conv2d_9",
            "inbound_nodes": [[["tf_op_layer_Mul_8", 0, 0, {}]]]
          },
          {
            "class_name": "BatchNormalization",
            "config": {
              "name": "batch_normalization_15",
              "trainable": true,
              "dtype": "float32",
              "axis": [3],
              "momentum": 0.99,
              "epsilon": 0.001,
              "center": true,
              "scale": true,
              "beta_initializer": { "class_name": "Zeros", "config": {} },
              "gamma_initializer": { "class_name": "Ones", "config": {} },
              "moving_mean_initializer": {
                "class_name": "Zeros",
                "config": {}
              },
              "moving_variance_initializer": {
                "class_name": "Ones",
                "config": {}
              },
              "beta_regularizer": null,
              "gamma_regularizer": null,
              "beta_constraint": null,
              "gamma_constraint": null
            },
            "name": "batch_normalization_15",
            "inbound_nodes": [[["conv2d_15", 0, 0, {}]]]
          },
          {
            "class_name": "BatchNormalization",
            "config": {
              "name": "batch_normalization_9",
              "trainable": true,
              "dtype": "float32",
              "axis": [3],
              "momentum": 0.99,
              "epsilon": 0.001,
              "center": true,
              "scale": true,
              "beta_initializer": { "class_name": "Zeros", "config": {} },
              "gamma_initializer": { "class_name": "Ones", "config": {} },
              "moving_mean_initializer": {
                "class_name": "Zeros",
                "config": {}
              },
              "moving_variance_initializer": {
                "class_name": "Ones",
                "config": {}
              },
              "beta_regularizer": null,
              "gamma_regularizer": null,
              "beta_constraint": null,
              "gamma_constraint": null
            },
            "name": "batch_normalization_9",
            "inbound_nodes": [[["conv2d_9", 0, 0, {}]]]
          },
          {
            "class_name": "TensorFlowOpLayer46",
            "config": {
              "name": "Softplus_15",
              "trainable": true,
              "dtype": "float32",
              "node_def": {
                "name": "Softplus_15",
                "op": "Softplus",
                "input": ["batch_normalization_15/FusedBatchNormV3"],
                "attr": { "T": { "type": "DT_FLOAT" } }
              },
              "constants": {}
            },
            "name": "tf_op_layer_Softplus_15",
            "inbound_nodes": [[["batch_normalization_15", 0, 0, {}]]]
          },
          {
            "class_name": "TensorFlowOpLayer47",
            "config": {
              "name": "Softplus_9",
              "trainable": true,
              "dtype": "float32",
              "node_def": {
                "name": "Softplus_9",
                "op": "Softplus",
                "input": ["batch_normalization_9/FusedBatchNormV3"],
                "attr": { "T": { "type": "DT_FLOAT" } }
              },
              "constants": {}
            },
            "name": "tf_op_layer_Softplus_9",
            "inbound_nodes": [[["batch_normalization_9", 0, 0, {}]]]
          },
          {
            "class_name": "TensorFlowOpLayer48",
            "config": {
              "name": "Tanh_15",
              "trainable": true,
              "dtype": "float32",
              "node_def": {
                "name": "Tanh_15",
                "op": "Tanh",
                "input": ["Softplus_15"],
                "attr": { "T": { "type": "DT_FLOAT" } }
              },
              "constants": {}
            },
            "name": "tf_op_layer_Tanh_15",
            "inbound_nodes": [[["tf_op_layer_Softplus_15", 0, 0, {}]]]
          },
          {
            "class_name": "TensorFlowOpLayer49",
            "config": {
              "name": "Tanh_9",
              "trainable": true,
              "dtype": "float32",
              "node_def": {
                "name": "Tanh_9",
                "op": "Tanh",
                "input": ["Softplus_9"],
                "attr": { "T": { "type": "DT_FLOAT" } }
              },
              "constants": {}
            },
            "name": "tf_op_layer_Tanh_9",
            "inbound_nodes": [[["tf_op_layer_Softplus_9", 0, 0, {}]]]
          },
          {
            "class_name": "TensorFlowOpLayer50",
            "config": {
              "name": "Mul_15",
              "trainable": true,
              "dtype": "float32",
              "node_def": {
                "name": "Mul_15",
                "op": "Mul",
                "input": ["batch_normalization_15/FusedBatchNormV3", "Tanh_15"],
                "attr": { "T": { "type": "DT_FLOAT" } }
              },
              "constants": {}
            },
            "name": "tf_op_layer_Mul_15",
            "inbound_nodes": [
              [
                ["batch_normalization_15", 0, 0, {}],
                ["tf_op_layer_Tanh_15", 0, 0, {}]
              ]
            ]
          },
          {
            "class_name": "TensorFlowOpLayer51",
            "config": {
              "name": "Mul_9",
              "trainable": true,
              "dtype": "float32",
              "node_def": {
                "name": "Mul_9",
                "op": "Mul",
                "input": ["batch_normalization_9/FusedBatchNormV3", "Tanh_9"],
                "attr": { "T": { "type": "DT_FLOAT" } }
              },
              "constants": {}
            },
            "name": "tf_op_layer_Mul_9",
            "inbound_nodes": [
              [
                ["batch_normalization_9", 0, 0, {}],
                ["tf_op_layer_Tanh_9", 0, 0, {}]
              ]
            ]
          },
          {
            "class_name": "TensorFlowOpLayer52",
            "config": {
              "name": "concat_1",
              "trainable": true,
              "dtype": "float32",
              "node_def": {
                "name": "concat_1",
                "op": "ConcatV2",
                "input": ["Mul_15", "Mul_9", "concat_1/axis"],
                "attr": {
                  "T": { "type": "DT_FLOAT" },
                  "N": { "i": "2" },
                  "Tidx": { "type": "DT_INT32" }
                }
              },
              "constants": { "2": -1 }
            },
            "name": "tf_op_layer_concat_1",
            "inbound_nodes": [
              [
                ["tf_op_layer_Mul_15", 0, 0, {}],
                ["tf_op_layer_Mul_9", 0, 0, {}]
              ]
            ]
          },
          {
            "class_name": "Conv2D",
            "config": {
              "name": "conv2d_16",
              "trainable": true,
              "dtype": "float32",
              "filters": 128,
              "kernel_size": [1, 1],
              "strides": [1, 1],
              "padding": "same",
              "data_format": "channels_last",
              "dilation_rate": [1, 1],
              "groups": 1,
              "activation": "linear",
              "use_bias": false,
              "kernel_initializer": {
                "class_name": "RandomNormal",
                "config": { "mean": 0.0, "stddev": 0.01, "seed": null }
              },
              "bias_initializer": {
                "class_name": "Constant",
                "config": { "value": 0.0 }
              },
              "kernel_regularizer": {
                "class_name": "L1L2",
                "config": { "l2": 0.0005000000237487257 }
              },
              "bias_regularizer": null,
              "activity_regularizer": null,
              "kernel_constraint": null,
              "bias_constraint": null
            },
            "name": "conv2d_16",
            "inbound_nodes": [[["tf_op_layer_concat_1", 0, 0, {}]]]
          },
          {
            "class_name": "BatchNormalization",
            "config": {
              "name": "batch_normalization_16",
              "trainable": true,
              "dtype": "float32",
              "axis": [3],
              "momentum": 0.99,
              "epsilon": 0.001,
              "center": true,
              "scale": true,
              "beta_initializer": { "class_name": "Zeros", "config": {} },
              "gamma_initializer": { "class_name": "Ones", "config": {} },
              "moving_mean_initializer": {
                "class_name": "Zeros",
                "config": {}
              },
              "moving_variance_initializer": {
                "class_name": "Ones",
                "config": {}
              },
              "beta_regularizer": null,
              "gamma_regularizer": null,
              "beta_constraint": null,
              "gamma_constraint": null
            },
            "name": "batch_normalization_16",
            "inbound_nodes": [[["conv2d_16", 0, 0, {}]]]
          },
          {
            "class_name": "TensorFlowOpLayer53",
            "config": {
              "name": "Softplus_16",
              "trainable": true,
              "dtype": "float32",
              "node_def": {
                "name": "Softplus_16",
                "op": "Softplus",
                "input": ["batch_normalization_16/FusedBatchNormV3"],
                "attr": { "T": { "type": "DT_FLOAT" } }
              },
              "constants": {}
            },
            "name": "tf_op_layer_Softplus_16",
            "inbound_nodes": [[["batch_normalization_16", 0, 0, {}]]]
          },
          {
            "class_name": "TensorFlowOpLayer54",
            "config": {
              "name": "Tanh_16",
              "trainable": true,
              "dtype": "float32",
              "node_def": {
                "name": "Tanh_16",
                "op": "Tanh",
                "input": ["Softplus_16"],
                "attr": { "T": { "type": "DT_FLOAT" } }
              },
              "constants": {}
            },
            "name": "tf_op_layer_Tanh_16",
            "inbound_nodes": [[["tf_op_layer_Softplus_16", 0, 0, {}]]]
          },
          {
            "class_name": "TensorFlowOpLayer55",
            "config": {
              "name": "Mul_16",
              "trainable": true,
              "dtype": "float32",
              "node_def": {
                "name": "Mul_16",
                "op": "Mul",
                "input": ["batch_normalization_16/FusedBatchNormV3", "Tanh_16"],
                "attr": { "T": { "type": "DT_FLOAT" } }
              },
              "constants": {}
            },
            "name": "tf_op_layer_Mul_16",
            "inbound_nodes": [
              [
                ["batch_normalization_16", 0, 0, {}],
                ["tf_op_layer_Tanh_16", 0, 0, {}]
              ]
            ]
          },
          {
            "class_name": "ZeroPadding2D",
            "config": {
              "name": "zero_padding2d_2",
              "trainable": true,
              "dtype": "float32",
              "padding": [
                [1, 0],
                [1, 0]
              ],
              "data_format": "channels_last"
            },
            "name": "zero_padding2d_2",
            "inbound_nodes": [[["tf_op_layer_Mul_16", 0, 0, {}]]]
          },
          {
            "class_name": "Conv2D",
            "config": {
              "name": "conv2d_17",
              "trainable": true,
              "dtype": "float32",
              "filters": 256,
              "kernel_size": [3, 3],
              "strides": [2, 2],
              "padding": "valid",
              "data_format": "channels_last",
              "dilation_rate": [1, 1],
              "groups": 1,
              "activation": "linear",
              "use_bias": false,
              "kernel_initializer": {
                "class_name": "RandomNormal",
                "config": { "mean": 0.0, "stddev": 0.01, "seed": null }
              },
              "bias_initializer": {
                "class_name": "Constant",
                "config": { "value": 0.0 }
              },
              "kernel_regularizer": {
                "class_name": "L1L2",
                "config": { "l2": 0.0005000000237487257 }
              },
              "bias_regularizer": null,
              "activity_regularizer": null,
              "kernel_constraint": null,
              "bias_constraint": null
            },
            "name": "conv2d_17",
            "inbound_nodes": [[["zero_padding2d_2", 0, 0, {}]]]
          },
          {
            "class_name": "BatchNormalization",
            "config": {
              "name": "batch_normalization_17",
              "trainable": true,
              "dtype": "float32",
              "axis": [3],
              "momentum": 0.99,
              "epsilon": 0.001,
              "center": true,
              "scale": true,
              "beta_initializer": { "class_name": "Zeros", "config": {} },
              "gamma_initializer": { "class_name": "Ones", "config": {} },
              "moving_mean_initializer": {
                "class_name": "Zeros",
                "config": {}
              },
              "moving_variance_initializer": {
                "class_name": "Ones",
                "config": {}
              },
              "beta_regularizer": null,
              "gamma_regularizer": null,
              "beta_constraint": null,
              "gamma_constraint": null
            },
            "name": "batch_normalization_17",
            "inbound_nodes": [[["conv2d_17", 0, 0, {}]]]
          },
          {
            "class_name": "TensorFlowOpLayer56",
            "config": {
              "name": "Softplus_17",
              "trainable": true,
              "dtype": "float32",
              "node_def": {
                "name": "Softplus_17",
                "op": "Softplus",
                "input": ["batch_normalization_17/FusedBatchNormV3"],
                "attr": { "T": { "type": "DT_FLOAT" } }
              },
              "constants": {}
            },
            "name": "tf_op_layer_Softplus_17",
            "inbound_nodes": [[["batch_normalization_17", 0, 0, {}]]]
          },
          {
            "class_name": "TensorFlowOpLayer57",
            "config": {
              "name": "Tanh_17",
              "trainable": true,
              "dtype": "float32",
              "node_def": {
                "name": "Tanh_17",
                "op": "Tanh",
                "input": ["Softplus_17"],
                "attr": { "T": { "type": "DT_FLOAT" } }
              },
              "constants": {}
            },
            "name": "tf_op_layer_Tanh_17",
            "inbound_nodes": [[["tf_op_layer_Softplus_17", 0, 0, {}]]]
          },
          {
            "class_name": "TensorFlowOpLayer58",
            "config": {
              "name": "Mul_17",
              "trainable": true,
              "dtype": "float32",
              "node_def": {
                "name": "Mul_17",
                "op": "Mul",
                "input": ["batch_normalization_17/FusedBatchNormV3", "Tanh_17"],
                "attr": { "T": { "type": "DT_FLOAT" } }
              },
              "constants": {}
            },
            "name": "tf_op_layer_Mul_17",
            "inbound_nodes": [
              [
                ["batch_normalization_17", 0, 0, {}],
                ["tf_op_layer_Tanh_17", 0, 0, {}]
              ]
            ]
          },
          {
            "class_name": "Conv2D",
            "config": {
              "name": "conv2d_19",
              "trainable": true,
              "dtype": "float32",
              "filters": 128,
              "kernel_size": [1, 1],
              "strides": [1, 1],
              "padding": "same",
              "data_format": "channels_last",
              "dilation_rate": [1, 1],
              "groups": 1,
              "activation": "linear",
              "use_bias": false,
              "kernel_initializer": {
                "class_name": "RandomNormal",
                "config": { "mean": 0.0, "stddev": 0.01, "seed": null }
              },
              "bias_initializer": {
                "class_name": "Constant",
                "config": { "value": 0.0 }
              },
              "kernel_regularizer": {
                "class_name": "L1L2",
                "config": { "l2": 0.0005000000237487257 }
              },
              "bias_regularizer": null,
              "activity_regularizer": null,
              "kernel_constraint": null,
              "bias_constraint": null
            },
            "name": "conv2d_19",
            "inbound_nodes": [[["tf_op_layer_Mul_17", 0, 0, {}]]]
          },
          {
            "class_name": "BatchNormalization",
            "config": {
              "name": "batch_normalization_19",
              "trainable": true,
              "dtype": "float32",
              "axis": [3],
              "momentum": 0.99,
              "epsilon": 0.001,
              "center": true,
              "scale": true,
              "beta_initializer": { "class_name": "Zeros", "config": {} },
              "gamma_initializer": { "class_name": "Ones", "config": {} },
              "moving_mean_initializer": {
                "class_name": "Zeros",
                "config": {}
              },
              "moving_variance_initializer": {
                "class_name": "Ones",
                "config": {}
              },
              "beta_regularizer": null,
              "gamma_regularizer": null,
              "beta_constraint": null,
              "gamma_constraint": null
            },
            "name": "batch_normalization_19",
            "inbound_nodes": [[["conv2d_19", 0, 0, {}]]]
          },
          {
            "class_name": "TensorFlowOpLayer59",
            "config": {
              "name": "Softplus_19",
              "trainable": true,
              "dtype": "float32",
              "node_def": {
                "name": "Softplus_19",
                "op": "Softplus",
                "input": ["batch_normalization_19/FusedBatchNormV3"],
                "attr": { "T": { "type": "DT_FLOAT" } }
              },
              "constants": {}
            },
            "name": "tf_op_layer_Softplus_19",
            "inbound_nodes": [[["batch_normalization_19", 0, 0, {}]]]
          },
          {
            "class_name": "TensorFlowOpLayer60",
            "config": {
              "name": "Tanh_19",
              "trainable": true,
              "dtype": "float32",
              "node_def": {
                "name": "Tanh_19",
                "op": "Tanh",
                "input": ["Softplus_19"],
                "attr": { "T": { "type": "DT_FLOAT" } }
              },
              "constants": {}
            },
            "name": "tf_op_layer_Tanh_19",
            "inbound_nodes": [[["tf_op_layer_Softplus_19", 0, 0, {}]]]
          },
          {
            "class_name": "TensorFlowOpLayer61",
            "config": {
              "name": "Mul_19",
              "trainable": true,
              "dtype": "float32",
              "node_def": {
                "name": "Mul_19",
                "op": "Mul",
                "input": ["batch_normalization_19/FusedBatchNormV3", "Tanh_19"],
                "attr": { "T": { "type": "DT_FLOAT" } }
              },
              "constants": {}
            },
            "name": "tf_op_layer_Mul_19",
            "inbound_nodes": [
              [
                ["batch_normalization_19", 0, 0, {}],
                ["tf_op_layer_Tanh_19", 0, 0, {}]
              ]
            ]
          },
          {
            "class_name": "Conv2D",
            "config": {
              "name": "conv2d_20",
              "trainable": true,
              "dtype": "float32",
              "filters": 128,
              "kernel_size": [1, 1],
              "strides": [1, 1],
              "padding": "same",
              "data_format": "channels_last",
              "dilation_rate": [1, 1],
              "groups": 1,
              "activation": "linear",
              "use_bias": false,
              "kernel_initializer": {
                "class_name": "RandomNormal",
                "config": { "mean": 0.0, "stddev": 0.01, "seed": null }
              },
              "bias_initializer": {
                "class_name": "Constant",
                "config": { "value": 0.0 }
              },
              "kernel_regularizer": {
                "class_name": "L1L2",
                "config": { "l2": 0.0005000000237487257 }
              },
              "bias_regularizer": null,
              "activity_regularizer": null,
              "kernel_constraint": null,
              "bias_constraint": null
            },
            "name": "conv2d_20",
            "inbound_nodes": [[["tf_op_layer_Mul_19", 0, 0, {}]]]
          },
          {
            "class_name": "BatchNormalization",
            "config": {
              "name": "batch_normalization_20",
              "trainable": true,
              "dtype": "float32",
              "axis": [3],
              "momentum": 0.99,
              "epsilon": 0.001,
              "center": true,
              "scale": true,
              "beta_initializer": { "class_name": "Zeros", "config": {} },
              "gamma_initializer": { "class_name": "Ones", "config": {} },
              "moving_mean_initializer": {
                "class_name": "Zeros",
                "config": {}
              },
              "moving_variance_initializer": {
                "class_name": "Ones",
                "config": {}
              },
              "beta_regularizer": null,
              "gamma_regularizer": null,
              "beta_constraint": null,
              "gamma_constraint": null
            },
            "name": "batch_normalization_20",
            "inbound_nodes": [[["conv2d_20", 0, 0, {}]]]
          },
          {
            "class_name": "TensorFlowOpLayer62",
            "config": {
              "name": "Softplus_20",
              "trainable": true,
              "dtype": "float32",
              "node_def": {
                "name": "Softplus_20",
                "op": "Softplus",
                "input": ["batch_normalization_20/FusedBatchNormV3"],
                "attr": { "T": { "type": "DT_FLOAT" } }
              },
              "constants": {}
            },
            "name": "tf_op_layer_Softplus_20",
            "inbound_nodes": [[["batch_normalization_20", 0, 0, {}]]]
          },
          {
            "class_name": "TensorFlowOpLayer63",
            "config": {
              "name": "Tanh_20",
              "trainable": true,
              "dtype": "float32",
              "node_def": {
                "name": "Tanh_20",
                "op": "Tanh",
                "input": ["Softplus_20"],
                "attr": { "T": { "type": "DT_FLOAT" } }
              },
              "constants": {}
            },
            "name": "tf_op_layer_Tanh_20",
            "inbound_nodes": [[["tf_op_layer_Softplus_20", 0, 0, {}]]]
          },
          {
            "class_name": "TensorFlowOpLayer64",
            "config": {
              "name": "Mul_20",
              "trainable": true,
              "dtype": "float32",
              "node_def": {
                "name": "Mul_20",
                "op": "Mul",
                "input": ["batch_normalization_20/FusedBatchNormV3", "Tanh_20"],
                "attr": { "T": { "type": "DT_FLOAT" } }
              },
              "constants": {}
            },
            "name": "tf_op_layer_Mul_20",
            "inbound_nodes": [
              [
                ["batch_normalization_20", 0, 0, {}],
                ["tf_op_layer_Tanh_20", 0, 0, {}]
              ]
            ]
          },
          {
            "class_name": "Conv2D",
            "config": {
              "name": "conv2d_21",
              "trainable": true,
              "dtype": "float32",
              "filters": 128,
              "kernel_size": [3, 3],
              "strides": [1, 1],
              "padding": "same",
              "data_format": "channels_last",
              "dilation_rate": [1, 1],
              "groups": 1,
              "activation": "linear",
              "use_bias": false,
              "kernel_initializer": {
                "class_name": "RandomNormal",
                "config": { "mean": 0.0, "stddev": 0.01, "seed": null }
              },
              "bias_initializer": {
                "class_name": "Constant",
                "config": { "value": 0.0 }
              },
              "kernel_regularizer": {
                "class_name": "L1L2",
                "config": { "l2": 0.0005000000237487257 }
              },
              "bias_regularizer": null,
              "activity_regularizer": null,
              "kernel_constraint": null,
              "bias_constraint": null
            },
            "name": "conv2d_21",
            "inbound_nodes": [[["tf_op_layer_Mul_20", 0, 0, {}]]]
          },
          {
            "class_name": "BatchNormalization",
            "config": {
              "name": "batch_normalization_21",
              "trainable": true,
              "dtype": "float32",
              "axis": [3],
              "momentum": 0.99,
              "epsilon": 0.001,
              "center": true,
              "scale": true,
              "beta_initializer": { "class_name": "Zeros", "config": {} },
              "gamma_initializer": { "class_name": "Ones", "config": {} },
              "moving_mean_initializer": {
                "class_name": "Zeros",
                "config": {}
              },
              "moving_variance_initializer": {
                "class_name": "Ones",
                "config": {}
              },
              "beta_regularizer": null,
              "gamma_regularizer": null,
              "beta_constraint": null,
              "gamma_constraint": null
            },
            "name": "batch_normalization_21",
            "inbound_nodes": [[["conv2d_21", 0, 0, {}]]]
          },
          {
            "class_name": "TensorFlowOpLayer65",
            "config": {
              "name": "Softplus_21",
              "trainable": true,
              "dtype": "float32",
              "node_def": {
                "name": "Softplus_21",
                "op": "Softplus",
                "input": ["batch_normalization_21/FusedBatchNormV3"],
                "attr": { "T": { "type": "DT_FLOAT" } }
              },
              "constants": {}
            },
            "name": "tf_op_layer_Softplus_21",
            "inbound_nodes": [[["batch_normalization_21", 0, 0, {}]]]
          },
          {
            "class_name": "TensorFlowOpLayer66",
            "config": {
              "name": "Tanh_21",
              "trainable": true,
              "dtype": "float32",
              "node_def": {
                "name": "Tanh_21",
                "op": "Tanh",
                "input": ["Softplus_21"],
                "attr": { "T": { "type": "DT_FLOAT" } }
              },
              "constants": {}
            },
            "name": "tf_op_layer_Tanh_21",
            "inbound_nodes": [[["tf_op_layer_Softplus_21", 0, 0, {}]]]
          },
          {
            "class_name": "TensorFlowOpLayer67",
            "config": {
              "name": "Mul_21",
              "trainable": true,
              "dtype": "float32",
              "node_def": {
                "name": "Mul_21",
                "op": "Mul",
                "input": ["batch_normalization_21/FusedBatchNormV3", "Tanh_21"],
                "attr": { "T": { "type": "DT_FLOAT" } }
              },
              "constants": {}
            },
            "name": "tf_op_layer_Mul_21",
            "inbound_nodes": [
              [
                ["batch_normalization_21", 0, 0, {}],
                ["tf_op_layer_Tanh_21", 0, 0, {}]
              ]
            ]
          },
          {
            "class_name": "TensorFlowOpLayer68",
            "config": {
              "name": "AddV2_3",
              "trainable": true,
              "dtype": "float32",
              "node_def": {
                "name": "AddV2_3",
                "op": "AddV2",
                "input": ["Mul_19", "Mul_21"],
                "attr": { "T": { "type": "DT_FLOAT" } }
              },
              "constants": {}
            },
            "name": "tf_op_layer_AddV2_3",
            "inbound_nodes": [
              [
                ["tf_op_layer_Mul_19", 0, 0, {}],
                ["tf_op_layer_Mul_21", 0, 0, {}]
              ]
            ]
          },
          {
            "class_name": "Conv2D",
            "config": {
              "name": "conv2d_22",
              "trainable": true,
              "dtype": "float32",
              "filters": 128,
              "kernel_size": [1, 1],
              "strides": [1, 1],
              "padding": "same",
              "data_format": "channels_last",
              "dilation_rate": [1, 1],
              "groups": 1,
              "activation": "linear",
              "use_bias": false,
              "kernel_initializer": {
                "class_name": "RandomNormal",
                "config": { "mean": 0.0, "stddev": 0.01, "seed": null }
              },
              "bias_initializer": {
                "class_name": "Constant",
                "config": { "value": 0.0 }
              },
              "kernel_regularizer": {
                "class_name": "L1L2",
                "config": { "l2": 0.0005000000237487257 }
              },
              "bias_regularizer": null,
              "activity_regularizer": null,
              "kernel_constraint": null,
              "bias_constraint": null
            },
            "name": "conv2d_22",
            "inbound_nodes": [[["tf_op_layer_AddV2_3", 0, 0, {}]]]
          },
          {
            "class_name": "BatchNormalization",
            "config": {
              "name": "batch_normalization_22",
              "trainable": true,
              "dtype": "float32",
              "axis": [3],
              "momentum": 0.99,
              "epsilon": 0.001,
              "center": true,
              "scale": true,
              "beta_initializer": { "class_name": "Zeros", "config": {} },
              "gamma_initializer": { "class_name": "Ones", "config": {} },
              "moving_mean_initializer": {
                "class_name": "Zeros",
                "config": {}
              },
              "moving_variance_initializer": {
                "class_name": "Ones",
                "config": {}
              },
              "beta_regularizer": null,
              "gamma_regularizer": null,
              "beta_constraint": null,
              "gamma_constraint": null
            },
            "name": "batch_normalization_22",
            "inbound_nodes": [[["conv2d_22", 0, 0, {}]]]
          },
          {
            "class_name": "TensorFlowOpLayer69",
            "config": {
              "name": "Softplus_22",
              "trainable": true,
              "dtype": "float32",
              "node_def": {
                "name": "Softplus_22",
                "op": "Softplus",
                "input": ["batch_normalization_22/FusedBatchNormV3"],
                "attr": { "T": { "type": "DT_FLOAT" } }
              },
              "constants": {}
            },
            "name": "tf_op_layer_Softplus_22",
            "inbound_nodes": [[["batch_normalization_22", 0, 0, {}]]]
          },
          {
            "class_name": "TensorFlowOpLayer70",
            "config": {
              "name": "Tanh_22",
              "trainable": true,
              "dtype": "float32",
              "node_def": {
                "name": "Tanh_22",
                "op": "Tanh",
                "input": ["Softplus_22"],
                "attr": { "T": { "type": "DT_FLOAT" } }
              },
              "constants": {}
            },
            "name": "tf_op_layer_Tanh_22",
            "inbound_nodes": [[["tf_op_layer_Softplus_22", 0, 0, {}]]]
          },
          {
            "class_name": "TensorFlowOpLayer71",
            "config": {
              "name": "Mul_22",
              "trainable": true,
              "dtype": "float32",
              "node_def": {
                "name": "Mul_22",
                "op": "Mul",
                "input": ["batch_normalization_22/FusedBatchNormV3", "Tanh_22"],
                "attr": { "T": { "type": "DT_FLOAT" } }
              },
              "constants": {}
            },
            "name": "tf_op_layer_Mul_22",
            "inbound_nodes": [
              [
                ["batch_normalization_22", 0, 0, {}],
                ["tf_op_layer_Tanh_22", 0, 0, {}]
              ]
            ]
          },
          {
            "class_name": "Conv2D",
            "config": {
              "name": "conv2d_23",
              "trainable": true,
              "dtype": "float32",
              "filters": 128,
              "kernel_size": [3, 3],
              "strides": [1, 1],
              "padding": "same",
              "data_format": "channels_last",
              "dilation_rate": [1, 1],
              "groups": 1,
              "activation": "linear",
              "use_bias": false,
              "kernel_initializer": {
                "class_name": "RandomNormal",
                "config": { "mean": 0.0, "stddev": 0.01, "seed": null }
              },
              "bias_initializer": {
                "class_name": "Constant",
                "config": { "value": 0.0 }
              },
              "kernel_regularizer": {
                "class_name": "L1L2",
                "config": { "l2": 0.0005000000237487257 }
              },
              "bias_regularizer": null,
              "activity_regularizer": null,
              "kernel_constraint": null,
              "bias_constraint": null
            },
            "name": "conv2d_23",
            "inbound_nodes": [[["tf_op_layer_Mul_22", 0, 0, {}]]]
          },
          {
            "class_name": "BatchNormalization",
            "config": {
              "name": "batch_normalization_23",
              "trainable": true,
              "dtype": "float32",
              "axis": [3],
              "momentum": 0.99,
              "epsilon": 0.001,
              "center": true,
              "scale": true,
              "beta_initializer": { "class_name": "Zeros", "config": {} },
              "gamma_initializer": { "class_name": "Ones", "config": {} },
              "moving_mean_initializer": {
                "class_name": "Zeros",
                "config": {}
              },
              "moving_variance_initializer": {
                "class_name": "Ones",
                "config": {}
              },
              "beta_regularizer": null,
              "gamma_regularizer": null,
              "beta_constraint": null,
              "gamma_constraint": null
            },
            "name": "batch_normalization_23",
            "inbound_nodes": [[["conv2d_23", 0, 0, {}]]]
          },
          {
            "class_name": "TensorFlowOpLayer72",
            "config": {
              "name": "Softplus_23",
              "trainable": true,
              "dtype": "float32",
              "node_def": {
                "name": "Softplus_23",
                "op": "Softplus",
                "input": ["batch_normalization_23/FusedBatchNormV3"],
                "attr": { "T": { "type": "DT_FLOAT" } }
              },
              "constants": {}
            },
            "name": "tf_op_layer_Softplus_23",
            "inbound_nodes": [[["batch_normalization_23", 0, 0, {}]]]
          },
          {
            "class_name": "TensorFlowOpLayer73",
            "config": {
              "name": "Tanh_23",
              "trainable": true,
              "dtype": "float32",
              "node_def": {
                "name": "Tanh_23",
                "op": "Tanh",
                "input": ["Softplus_23"],
                "attr": { "T": { "type": "DT_FLOAT" } }
              },
              "constants": {}
            },
            "name": "tf_op_layer_Tanh_23",
            "inbound_nodes": [[["tf_op_layer_Softplus_23", 0, 0, {}]]]
          },
          {
            "class_name": "TensorFlowOpLayer74",
            "config": {
              "name": "Mul_23",
              "trainable": true,
              "dtype": "float32",
              "node_def": {
                "name": "Mul_23",
                "op": "Mul",
                "input": ["batch_normalization_23/FusedBatchNormV3", "Tanh_23"],
                "attr": { "T": { "type": "DT_FLOAT" } }
              },
              "constants": {}
            },
            "name": "tf_op_layer_Mul_23",
            "inbound_nodes": [
              [
                ["batch_normalization_23", 0, 0, {}],
                ["tf_op_layer_Tanh_23", 0, 0, {}]
              ]
            ]
          },
          {
            "class_name": "TensorFlowOpLayer75",
            "config": {
              "name": "AddV2_4",
              "trainable": true,
              "dtype": "float32",
              "node_def": {
                "name": "AddV2_4",
                "op": "AddV2",
                "input": ["AddV2_3", "Mul_23"],
                "attr": { "T": { "type": "DT_FLOAT" } }
              },
              "constants": {}
            },
            "name": "tf_op_layer_AddV2_4",
            "inbound_nodes": [
              [
                ["tf_op_layer_AddV2_3", 0, 0, {}],
                ["tf_op_layer_Mul_23", 0, 0, {}]
              ]
            ]
          },
          {
            "class_name": "Conv2D",
            "config": {
              "name": "conv2d_24",
              "trainable": true,
              "dtype": "float32",
              "filters": 128,
              "kernel_size": [1, 1],
              "strides": [1, 1],
              "padding": "same",
              "data_format": "channels_last",
              "dilation_rate": [1, 1],
              "groups": 1,
              "activation": "linear",
              "use_bias": false,
              "kernel_initializer": {
                "class_name": "RandomNormal",
                "config": { "mean": 0.0, "stddev": 0.01, "seed": null }
              },
              "bias_initializer": {
                "class_name": "Constant",
                "config": { "value": 0.0 }
              },
              "kernel_regularizer": {
                "class_name": "L1L2",
                "config": { "l2": 0.0005000000237487257 }
              },
              "bias_regularizer": null,
              "activity_regularizer": null,
              "kernel_constraint": null,
              "bias_constraint": null
            },
            "name": "conv2d_24",
            "inbound_nodes": [[["tf_op_layer_AddV2_4", 0, 0, {}]]]
          },
          {
            "class_name": "BatchNormalization",
            "config": {
              "name": "batch_normalization_24",
              "trainable": true,
              "dtype": "float32",
              "axis": [3],
              "momentum": 0.99,
              "epsilon": 0.001,
              "center": true,
              "scale": true,
              "beta_initializer": { "class_name": "Zeros", "config": {} },
              "gamma_initializer": { "class_name": "Ones", "config": {} },
              "moving_mean_initializer": {
                "class_name": "Zeros",
                "config": {}
              },
              "moving_variance_initializer": {
                "class_name": "Ones",
                "config": {}
              },
              "beta_regularizer": null,
              "gamma_regularizer": null,
              "beta_constraint": null,
              "gamma_constraint": null
            },
            "name": "batch_normalization_24",
            "inbound_nodes": [[["conv2d_24", 0, 0, {}]]]
          },
          {
            "class_name": "TensorFlowOpLayer76",
            "config": {
              "name": "Softplus_24",
              "trainable": true,
              "dtype": "float32",
              "node_def": {
                "name": "Softplus_24",
                "op": "Softplus",
                "input": ["batch_normalization_24/FusedBatchNormV3"],
                "attr": { "T": { "type": "DT_FLOAT" } }
              },
              "constants": {}
            },
            "name": "tf_op_layer_Softplus_24",
            "inbound_nodes": [[["batch_normalization_24", 0, 0, {}]]]
          },
          {
            "class_name": "TensorFlowOpLayer77",
            "config": {
              "name": "Tanh_24",
              "trainable": true,
              "dtype": "float32",
              "node_def": {
                "name": "Tanh_24",
                "op": "Tanh",
                "input": ["Softplus_24"],
                "attr": { "T": { "type": "DT_FLOAT" } }
              },
              "constants": {}
            },
            "name": "tf_op_layer_Tanh_24",
            "inbound_nodes": [[["tf_op_layer_Softplus_24", 0, 0, {}]]]
          },
          {
            "class_name": "TensorFlowOpLayer78",
            "config": {
              "name": "Mul_24",
              "trainable": true,
              "dtype": "float32",
              "node_def": {
                "name": "Mul_24",
                "op": "Mul",
                "input": ["batch_normalization_24/FusedBatchNormV3", "Tanh_24"],
                "attr": { "T": { "type": "DT_FLOAT" } }
              },
              "constants": {}
            },
            "name": "tf_op_layer_Mul_24",
            "inbound_nodes": [
              [
                ["batch_normalization_24", 0, 0, {}],
                ["tf_op_layer_Tanh_24", 0, 0, {}]
              ]
            ]
          },
          {
            "class_name": "Conv2D",
            "config": {
              "name": "conv2d_25",
              "trainable": true,
              "dtype": "float32",
              "filters": 128,
              "kernel_size": [3, 3],
              "strides": [1, 1],
              "padding": "same",
              "data_format": "channels_last",
              "dilation_rate": [1, 1],
              "groups": 1,
              "activation": "linear",
              "use_bias": false,
              "kernel_initializer": {
                "class_name": "RandomNormal",
                "config": { "mean": 0.0, "stddev": 0.01, "seed": null }
              },
              "bias_initializer": {
                "class_name": "Constant",
                "config": { "value": 0.0 }
              },
              "kernel_regularizer": {
                "class_name": "L1L2",
                "config": { "l2": 0.0005000000237487257 }
              },
              "bias_regularizer": null,
              "activity_regularizer": null,
              "kernel_constraint": null,
              "bias_constraint": null
            },
            "name": "conv2d_25",
            "inbound_nodes": [[["tf_op_layer_Mul_24", 0, 0, {}]]]
          },
          {
            "class_name": "BatchNormalization",
            "config": {
              "name": "batch_normalization_25",
              "trainable": true,
              "dtype": "float32",
              "axis": [3],
              "momentum": 0.99,
              "epsilon": 0.001,
              "center": true,
              "scale": true,
              "beta_initializer": { "class_name": "Zeros", "config": {} },
              "gamma_initializer": { "class_name": "Ones", "config": {} },
              "moving_mean_initializer": {
                "class_name": "Zeros",
                "config": {}
              },
              "moving_variance_initializer": {
                "class_name": "Ones",
                "config": {}
              },
              "beta_regularizer": null,
              "gamma_regularizer": null,
              "beta_constraint": null,
              "gamma_constraint": null
            },
            "name": "batch_normalization_25",
            "inbound_nodes": [[["conv2d_25", 0, 0, {}]]]
          },
          {
            "class_name": "TensorFlowOpLayer79",
            "config": {
              "name": "Softplus_25",
              "trainable": true,
              "dtype": "float32",
              "node_def": {
                "name": "Softplus_25",
                "op": "Softplus",
                "input": ["batch_normalization_25/FusedBatchNormV3"],
                "attr": { "T": { "type": "DT_FLOAT" } }
              },
              "constants": {}
            },
            "name": "tf_op_layer_Softplus_25",
            "inbound_nodes": [[["batch_normalization_25", 0, 0, {}]]]
          },
          {
            "class_name": "TensorFlowOpLayer80",
            "config": {
              "name": "Tanh_25",
              "trainable": true,
              "dtype": "float32",
              "node_def": {
                "name": "Tanh_25",
                "op": "Tanh",
                "input": ["Softplus_25"],
                "attr": { "T": { "type": "DT_FLOAT" } }
              },
              "constants": {}
            },
            "name": "tf_op_layer_Tanh_25",
            "inbound_nodes": [[["tf_op_layer_Softplus_25", 0, 0, {}]]]
          },
          {
            "class_name": "TensorFlowOpLayer81",
            "config": {
              "name": "Mul_25",
              "trainable": true,
              "dtype": "float32",
              "node_def": {
                "name": "Mul_25",
                "op": "Mul",
                "input": ["batch_normalization_25/FusedBatchNormV3", "Tanh_25"],
                "attr": { "T": { "type": "DT_FLOAT" } }
              },
              "constants": {}
            },
            "name": "tf_op_layer_Mul_25",
            "inbound_nodes": [
              [
                ["batch_normalization_25", 0, 0, {}],
                ["tf_op_layer_Tanh_25", 0, 0, {}]
              ]
            ]
          },
          {
            "class_name": "TensorFlowOpLayer82",
            "config": {
              "name": "AddV2_5",
              "trainable": true,
              "dtype": "float32",
              "node_def": {
                "name": "AddV2_5",
                "op": "AddV2",
                "input": ["AddV2_4", "Mul_25"],
                "attr": { "T": { "type": "DT_FLOAT" } }
              },
              "constants": {}
            },
            "name": "tf_op_layer_AddV2_5",
            "inbound_nodes": [
              [
                ["tf_op_layer_AddV2_4", 0, 0, {}],
                ["tf_op_layer_Mul_25", 0, 0, {}]
              ]
            ]
          },
          {
            "class_name": "Conv2D",
            "config": {
              "name": "conv2d_26",
              "trainable": true,
              "dtype": "float32",
              "filters": 128,
              "kernel_size": [1, 1],
              "strides": [1, 1],
              "padding": "same",
              "data_format": "channels_last",
              "dilation_rate": [1, 1],
              "groups": 1,
              "activation": "linear",
              "use_bias": false,
              "kernel_initializer": {
                "class_name": "RandomNormal",
                "config": { "mean": 0.0, "stddev": 0.01, "seed": null }
              },
              "bias_initializer": {
                "class_name": "Constant",
                "config": { "value": 0.0 }
              },
              "kernel_regularizer": {
                "class_name": "L1L2",
                "config": { "l2": 0.0005000000237487257 }
              },
              "bias_regularizer": null,
              "activity_regularizer": null,
              "kernel_constraint": null,
              "bias_constraint": null
            },
            "name": "conv2d_26",
            "inbound_nodes": [[["tf_op_layer_AddV2_5", 0, 0, {}]]]
          },
          {
            "class_name": "BatchNormalization",
            "config": {
              "name": "batch_normalization_26",
              "trainable": true,
              "dtype": "float32",
              "axis": [3],
              "momentum": 0.99,
              "epsilon": 0.001,
              "center": true,
              "scale": true,
              "beta_initializer": { "class_name": "Zeros", "config": {} },
              "gamma_initializer": { "class_name": "Ones", "config": {} },
              "moving_mean_initializer": {
                "class_name": "Zeros",
                "config": {}
              },
              "moving_variance_initializer": {
                "class_name": "Ones",
                "config": {}
              },
              "beta_regularizer": null,
              "gamma_regularizer": null,
              "beta_constraint": null,
              "gamma_constraint": null
            },
            "name": "batch_normalization_26",
            "inbound_nodes": [[["conv2d_26", 0, 0, {}]]]
          },
          {
            "class_name": "TensorFlowOpLayer83",
            "config": {
              "name": "Softplus_26",
              "trainable": true,
              "dtype": "float32",
              "node_def": {
                "name": "Softplus_26",
                "op": "Softplus",
                "input": ["batch_normalization_26/FusedBatchNormV3"],
                "attr": { "T": { "type": "DT_FLOAT" } }
              },
              "constants": {}
            },
            "name": "tf_op_layer_Softplus_26",
            "inbound_nodes": [[["batch_normalization_26", 0, 0, {}]]]
          },
          {
            "class_name": "TensorFlowOpLayer84",
            "config": {
              "name": "Tanh_26",
              "trainable": true,
              "dtype": "float32",
              "node_def": {
                "name": "Tanh_26",
                "op": "Tanh",
                "input": ["Softplus_26"],
                "attr": { "T": { "type": "DT_FLOAT" } }
              },
              "constants": {}
            },
            "name": "tf_op_layer_Tanh_26",
            "inbound_nodes": [[["tf_op_layer_Softplus_26", 0, 0, {}]]]
          },
          {
            "class_name": "TensorFlowOpLayer85",
            "config": {
              "name": "Mul_26",
              "trainable": true,
              "dtype": "float32",
              "node_def": {
                "name": "Mul_26",
                "op": "Mul",
                "input": ["batch_normalization_26/FusedBatchNormV3", "Tanh_26"],
                "attr": { "T": { "type": "DT_FLOAT" } }
              },
              "constants": {}
            },
            "name": "tf_op_layer_Mul_26",
            "inbound_nodes": [
              [
                ["batch_normalization_26", 0, 0, {}],
                ["tf_op_layer_Tanh_26", 0, 0, {}]
              ]
            ]
          },
          {
            "class_name": "Conv2D",
            "config": {
              "name": "conv2d_27",
              "trainable": true,
              "dtype": "float32",
              "filters": 128,
              "kernel_size": [3, 3],
              "strides": [1, 1],
              "padding": "same",
              "data_format": "channels_last",
              "dilation_rate": [1, 1],
              "groups": 1,
              "activation": "linear",
              "use_bias": false,
              "kernel_initializer": {
                "class_name": "RandomNormal",
                "config": { "mean": 0.0, "stddev": 0.01, "seed": null }
              },
              "bias_initializer": {
                "class_name": "Constant",
                "config": { "value": 0.0 }
              },
              "kernel_regularizer": {
                "class_name": "L1L2",
                "config": { "l2": 0.0005000000237487257 }
              },
              "bias_regularizer": null,
              "activity_regularizer": null,
              "kernel_constraint": null,
              "bias_constraint": null
            },
            "name": "conv2d_27",
            "inbound_nodes": [[["tf_op_layer_Mul_26", 0, 0, {}]]]
          },
          {
            "class_name": "BatchNormalization",
            "config": {
              "name": "batch_normalization_27",
              "trainable": true,
              "dtype": "float32",
              "axis": [3],
              "momentum": 0.99,
              "epsilon": 0.001,
              "center": true,
              "scale": true,
              "beta_initializer": { "class_name": "Zeros", "config": {} },
              "gamma_initializer": { "class_name": "Ones", "config": {} },
              "moving_mean_initializer": {
                "class_name": "Zeros",
                "config": {}
              },
              "moving_variance_initializer": {
                "class_name": "Ones",
                "config": {}
              },
              "beta_regularizer": null,
              "gamma_regularizer": null,
              "beta_constraint": null,
              "gamma_constraint": null
            },
            "name": "batch_normalization_27",
            "inbound_nodes": [[["conv2d_27", 0, 0, {}]]]
          },
          {
            "class_name": "TensorFlowOpLayer86",
            "config": {
              "name": "Softplus_27",
              "trainable": true,
              "dtype": "float32",
              "node_def": {
                "name": "Softplus_27",
                "op": "Softplus",
                "input": ["batch_normalization_27/FusedBatchNormV3"],
                "attr": { "T": { "type": "DT_FLOAT" } }
              },
              "constants": {}
            },
            "name": "tf_op_layer_Softplus_27",
            "inbound_nodes": [[["batch_normalization_27", 0, 0, {}]]]
          },
          {
            "class_name": "TensorFlowOpLayer87",
            "config": {
              "name": "Tanh_27",
              "trainable": true,
              "dtype": "float32",
              "node_def": {
                "name": "Tanh_27",
                "op": "Tanh",
                "input": ["Softplus_27"],
                "attr": { "T": { "type": "DT_FLOAT" } }
              },
              "constants": {}
            },
            "name": "tf_op_layer_Tanh_27",
            "inbound_nodes": [[["tf_op_layer_Softplus_27", 0, 0, {}]]]
          },
          {
            "class_name": "TensorFlowOpLayer88",
            "config": {
              "name": "Mul_27",
              "trainable": true,
              "dtype": "float32",
              "node_def": {
                "name": "Mul_27",
                "op": "Mul",
                "input": ["batch_normalization_27/FusedBatchNormV3", "Tanh_27"],
                "attr": { "T": { "type": "DT_FLOAT" } }
              },
              "constants": {}
            },
            "name": "tf_op_layer_Mul_27",
            "inbound_nodes": [
              [
                ["batch_normalization_27", 0, 0, {}],
                ["tf_op_layer_Tanh_27", 0, 0, {}]
              ]
            ]
          },
          {
            "class_name": "TensorFlowOpLayer89",
            "config": {
              "name": "AddV2_6",
              "trainable": true,
              "dtype": "float32",
              "node_def": {
                "name": "AddV2_6",
                "op": "AddV2",
                "input": ["AddV2_5", "Mul_27"],
                "attr": { "T": { "type": "DT_FLOAT" } }
              },
              "constants": {}
            },
            "name": "tf_op_layer_AddV2_6",
            "inbound_nodes": [
              [
                ["tf_op_layer_AddV2_5", 0, 0, {}],
                ["tf_op_layer_Mul_27", 0, 0, {}]
              ]
            ]
          },
          {
            "class_name": "Conv2D",
            "config": {
              "name": "conv2d_28",
              "trainable": true,
              "dtype": "float32",
              "filters": 128,
              "kernel_size": [1, 1],
              "strides": [1, 1],
              "padding": "same",
              "data_format": "channels_last",
              "dilation_rate": [1, 1],
              "groups": 1,
              "activation": "linear",
              "use_bias": false,
              "kernel_initializer": {
                "class_name": "RandomNormal",
                "config": { "mean": 0.0, "stddev": 0.01, "seed": null }
              },
              "bias_initializer": {
                "class_name": "Constant",
                "config": { "value": 0.0 }
              },
              "kernel_regularizer": {
                "class_name": "L1L2",
                "config": { "l2": 0.0005000000237487257 }
              },
              "bias_regularizer": null,
              "activity_regularizer": null,
              "kernel_constraint": null,
              "bias_constraint": null
            },
            "name": "conv2d_28",
            "inbound_nodes": [[["tf_op_layer_AddV2_6", 0, 0, {}]]]
          },
          {
            "class_name": "BatchNormalization",
            "config": {
              "name": "batch_normalization_28",
              "trainable": true,
              "dtype": "float32",
              "axis": [3],
              "momentum": 0.99,
              "epsilon": 0.001,
              "center": true,
              "scale": true,
              "beta_initializer": { "class_name": "Zeros", "config": {} },
              "gamma_initializer": { "class_name": "Ones", "config": {} },
              "moving_mean_initializer": {
                "class_name": "Zeros",
                "config": {}
              },
              "moving_variance_initializer": {
                "class_name": "Ones",
                "config": {}
              },
              "beta_regularizer": null,
              "gamma_regularizer": null,
              "beta_constraint": null,
              "gamma_constraint": null
            },
            "name": "batch_normalization_28",
            "inbound_nodes": [[["conv2d_28", 0, 0, {}]]]
          },
          {
            "class_name": "TensorFlowOpLayer90",
            "config": {
              "name": "Softplus_28",
              "trainable": true,
              "dtype": "float32",
              "node_def": {
                "name": "Softplus_28",
                "op": "Softplus",
                "input": ["batch_normalization_28/FusedBatchNormV3"],
                "attr": { "T": { "type": "DT_FLOAT" } }
              },
              "constants": {}
            },
            "name": "tf_op_layer_Softplus_28",
            "inbound_nodes": [[["batch_normalization_28", 0, 0, {}]]]
          },
          {
            "class_name": "TensorFlowOpLayer91",
            "config": {
              "name": "Tanh_28",
              "trainable": true,
              "dtype": "float32",
              "node_def": {
                "name": "Tanh_28",
                "op": "Tanh",
                "input": ["Softplus_28"],
                "attr": { "T": { "type": "DT_FLOAT" } }
              },
              "constants": {}
            },
            "name": "tf_op_layer_Tanh_28",
            "inbound_nodes": [[["tf_op_layer_Softplus_28", 0, 0, {}]]]
          },
          {
            "class_name": "TensorFlowOpLayer92",
            "config": {
              "name": "Mul_28",
              "trainable": true,
              "dtype": "float32",
              "node_def": {
                "name": "Mul_28",
                "op": "Mul",
                "input": ["batch_normalization_28/FusedBatchNormV3", "Tanh_28"],
                "attr": { "T": { "type": "DT_FLOAT" } }
              },
              "constants": {}
            },
            "name": "tf_op_layer_Mul_28",
            "inbound_nodes": [
              [
                ["batch_normalization_28", 0, 0, {}],
                ["tf_op_layer_Tanh_28", 0, 0, {}]
              ]
            ]
          },
          {
            "class_name": "Conv2D",
            "config": {
              "name": "conv2d_29",
              "trainable": true,
              "dtype": "float32",
              "filters": 128,
              "kernel_size": [3, 3],
              "strides": [1, 1],
              "padding": "same",
              "data_format": "channels_last",
              "dilation_rate": [1, 1],
              "groups": 1,
              "activation": "linear",
              "use_bias": false,
              "kernel_initializer": {
                "class_name": "RandomNormal",
                "config": { "mean": 0.0, "stddev": 0.01, "seed": null }
              },
              "bias_initializer": {
                "class_name": "Constant",
                "config": { "value": 0.0 }
              },
              "kernel_regularizer": {
                "class_name": "L1L2",
                "config": { "l2": 0.0005000000237487257 }
              },
              "bias_regularizer": null,
              "activity_regularizer": null,
              "kernel_constraint": null,
              "bias_constraint": null
            },
            "name": "conv2d_29",
            "inbound_nodes": [[["tf_op_layer_Mul_28", 0, 0, {}]]]
          },
          {
            "class_name": "BatchNormalization",
            "config": {
              "name": "batch_normalization_29",
              "trainable": true,
              "dtype": "float32",
              "axis": [3],
              "momentum": 0.99,
              "epsilon": 0.001,
              "center": true,
              "scale": true,
              "beta_initializer": { "class_name": "Zeros", "config": {} },
              "gamma_initializer": { "class_name": "Ones", "config": {} },
              "moving_mean_initializer": {
                "class_name": "Zeros",
                "config": {}
              },
              "moving_variance_initializer": {
                "class_name": "Ones",
                "config": {}
              },
              "beta_regularizer": null,
              "gamma_regularizer": null,
              "beta_constraint": null,
              "gamma_constraint": null
            },
            "name": "batch_normalization_29",
            "inbound_nodes": [[["conv2d_29", 0, 0, {}]]]
          },
          {
            "class_name": "TensorFlowOpLayer93",
            "config": {
              "name": "Softplus_29",
              "trainable": true,
              "dtype": "float32",
              "node_def": {
                "name": "Softplus_29",
                "op": "Softplus",
                "input": ["batch_normalization_29/FusedBatchNormV3"],
                "attr": { "T": { "type": "DT_FLOAT" } }
              },
              "constants": {}
            },
            "name": "tf_op_layer_Softplus_29",
            "inbound_nodes": [[["batch_normalization_29", 0, 0, {}]]]
          },
          {
            "class_name": "TensorFlowOpLayer94",
            "config": {
              "name": "Tanh_29",
              "trainable": true,
              "dtype": "float32",
              "node_def": {
                "name": "Tanh_29",
                "op": "Tanh",
                "input": ["Softplus_29"],
                "attr": { "T": { "type": "DT_FLOAT" } }
              },
              "constants": {}
            },
            "name": "tf_op_layer_Tanh_29",
            "inbound_nodes": [[["tf_op_layer_Softplus_29", 0, 0, {}]]]
          },
          {
            "class_name": "TensorFlowOpLayer95",
            "config": {
              "name": "Mul_29",
              "trainable": true,
              "dtype": "float32",
              "node_def": {
                "name": "Mul_29",
                "op": "Mul",
                "input": ["batch_normalization_29/FusedBatchNormV3", "Tanh_29"],
                "attr": { "T": { "type": "DT_FLOAT" } }
              },
              "constants": {}
            },
            "name": "tf_op_layer_Mul_29",
            "inbound_nodes": [
              [
                ["batch_normalization_29", 0, 0, {}],
                ["tf_op_layer_Tanh_29", 0, 0, {}]
              ]
            ]
          },
          {
            "class_name": "TensorFlowOpLayer96",
            "config": {
              "name": "AddV2_7",
              "trainable": true,
              "dtype": "float32",
              "node_def": {
                "name": "AddV2_7",
                "op": "AddV2",
                "input": ["AddV2_6", "Mul_29"],
                "attr": { "T": { "type": "DT_FLOAT" } }
              },
              "constants": {}
            },
            "name": "tf_op_layer_AddV2_7",
            "inbound_nodes": [
              [
                ["tf_op_layer_AddV2_6", 0, 0, {}],
                ["tf_op_layer_Mul_29", 0, 0, {}]
              ]
            ]
          },
          {
            "class_name": "Conv2D",
            "config": {
              "name": "conv2d_30",
              "trainable": true,
              "dtype": "float32",
              "filters": 128,
              "kernel_size": [1, 1],
              "strides": [1, 1],
              "padding": "same",
              "data_format": "channels_last",
              "dilation_rate": [1, 1],
              "groups": 1,
              "activation": "linear",
              "use_bias": false,
              "kernel_initializer": {
                "class_name": "RandomNormal",
                "config": { "mean": 0.0, "stddev": 0.01, "seed": null }
              },
              "bias_initializer": {
                "class_name": "Constant",
                "config": { "value": 0.0 }
              },
              "kernel_regularizer": {
                "class_name": "L1L2",
                "config": { "l2": 0.0005000000237487257 }
              },
              "bias_regularizer": null,
              "activity_regularizer": null,
              "kernel_constraint": null,
              "bias_constraint": null
            },
            "name": "conv2d_30",
            "inbound_nodes": [[["tf_op_layer_AddV2_7", 0, 0, {}]]]
          },
          {
            "class_name": "BatchNormalization",
            "config": {
              "name": "batch_normalization_30",
              "trainable": true,
              "dtype": "float32",
              "axis": [3],
              "momentum": 0.99,
              "epsilon": 0.001,
              "center": true,
              "scale": true,
              "beta_initializer": { "class_name": "Zeros", "config": {} },
              "gamma_initializer": { "class_name": "Ones", "config": {} },
              "moving_mean_initializer": {
                "class_name": "Zeros",
                "config": {}
              },
              "moving_variance_initializer": {
                "class_name": "Ones",
                "config": {}
              },
              "beta_regularizer": null,
              "gamma_regularizer": null,
              "beta_constraint": null,
              "gamma_constraint": null
            },
            "name": "batch_normalization_30",
            "inbound_nodes": [[["conv2d_30", 0, 0, {}]]]
          },
          {
            "class_name": "TensorFlowOpLayer97",
            "config": {
              "name": "Softplus_30",
              "trainable": true,
              "dtype": "float32",
              "node_def": {
                "name": "Softplus_30",
                "op": "Softplus",
                "input": ["batch_normalization_30/FusedBatchNormV3"],
                "attr": { "T": { "type": "DT_FLOAT" } }
              },
              "constants": {}
            },
            "name": "tf_op_layer_Softplus_30",
            "inbound_nodes": [[["batch_normalization_30", 0, 0, {}]]]
          },
          {
            "class_name": "TensorFlowOpLayer98",
            "config": {
              "name": "Tanh_30",
              "trainable": true,
              "dtype": "float32",
              "node_def": {
                "name": "Tanh_30",
                "op": "Tanh",
                "input": ["Softplus_30"],
                "attr": { "T": { "type": "DT_FLOAT" } }
              },
              "constants": {}
            },
            "name": "tf_op_layer_Tanh_30",
            "inbound_nodes": [[["tf_op_layer_Softplus_30", 0, 0, {}]]]
          },
          {
            "class_name": "TensorFlowOpLayer99",
            "config": {
              "name": "Mul_30",
              "trainable": true,
              "dtype": "float32",
              "node_def": {
                "name": "Mul_30",
                "op": "Mul",
                "input": ["batch_normalization_30/FusedBatchNormV3", "Tanh_30"],
                "attr": { "T": { "type": "DT_FLOAT" } }
              },
              "constants": {}
            },
            "name": "tf_op_layer_Mul_30",
            "inbound_nodes": [
              [
                ["batch_normalization_30", 0, 0, {}],
                ["tf_op_layer_Tanh_30", 0, 0, {}]
              ]
            ]
          },
          {
            "class_name": "Conv2D",
            "config": {
              "name": "conv2d_31",
              "trainable": true,
              "dtype": "float32",
              "filters": 128,
              "kernel_size": [3, 3],
              "strides": [1, 1],
              "padding": "same",
              "data_format": "channels_last",
              "dilation_rate": [1, 1],
              "groups": 1,
              "activation": "linear",
              "use_bias": false,
              "kernel_initializer": {
                "class_name": "RandomNormal",
                "config": { "mean": 0.0, "stddev": 0.01, "seed": null }
              },
              "bias_initializer": {
                "class_name": "Constant",
                "config": { "value": 0.0 }
              },
              "kernel_regularizer": {
                "class_name": "L1L2",
                "config": { "l2": 0.0005000000237487257 }
              },
              "bias_regularizer": null,
              "activity_regularizer": null,
              "kernel_constraint": null,
              "bias_constraint": null
            },
            "name": "conv2d_31",
            "inbound_nodes": [[["tf_op_layer_Mul_30", 0, 0, {}]]]
          },
          {
            "class_name": "BatchNormalization",
            "config": {
              "name": "batch_normalization_31",
              "trainable": true,
              "dtype": "float32",
              "axis": [3],
              "momentum": 0.99,
              "epsilon": 0.001,
              "center": true,
              "scale": true,
              "beta_initializer": { "class_name": "Zeros", "config": {} },
              "gamma_initializer": { "class_name": "Ones", "config": {} },
              "moving_mean_initializer": {
                "class_name": "Zeros",
                "config": {}
              },
              "moving_variance_initializer": {
                "class_name": "Ones",
                "config": {}
              },
              "beta_regularizer": null,
              "gamma_regularizer": null,
              "beta_constraint": null,
              "gamma_constraint": null
            },
            "name": "batch_normalization_31",
            "inbound_nodes": [[["conv2d_31", 0, 0, {}]]]
          },
          {
            "class_name": "TensorFlowOpLayer100",
            "config": {
              "name": "Softplus_31",
              "trainable": true,
              "dtype": "float32",
              "node_def": {
                "name": "Softplus_31",
                "op": "Softplus",
                "input": ["batch_normalization_31/FusedBatchNormV3"],
                "attr": { "T": { "type": "DT_FLOAT" } }
              },
              "constants": {}
            },
            "name": "tf_op_layer_Softplus_31",
            "inbound_nodes": [[["batch_normalization_31", 0, 0, {}]]]
          },
          {
            "class_name": "TensorFlowOpLayer101",
            "config": {
              "name": "Tanh_31",
              "trainable": true,
              "dtype": "float32",
              "node_def": {
                "name": "Tanh_31",
                "op": "Tanh",
                "input": ["Softplus_31"],
                "attr": { "T": { "type": "DT_FLOAT" } }
              },
              "constants": {}
            },
            "name": "tf_op_layer_Tanh_31",
            "inbound_nodes": [[["tf_op_layer_Softplus_31", 0, 0, {}]]]
          },
          {
            "class_name": "TensorFlowOpLayer102",
            "config": {
              "name": "Mul_31",
              "trainable": true,
              "dtype": "float32",
              "node_def": {
                "name": "Mul_31",
                "op": "Mul",
                "input": ["batch_normalization_31/FusedBatchNormV3", "Tanh_31"],
                "attr": { "T": { "type": "DT_FLOAT" } }
              },
              "constants": {}
            },
            "name": "tf_op_layer_Mul_31",
            "inbound_nodes": [
              [
                ["batch_normalization_31", 0, 0, {}],
                ["tf_op_layer_Tanh_31", 0, 0, {}]
              ]
            ]
          },
          {
            "class_name": "TensorFlowOpLayer103",
            "config": {
              "name": "AddV2_8",
              "trainable": true,
              "dtype": "float32",
              "node_def": {
                "name": "AddV2_8",
                "op": "AddV2",
                "input": ["AddV2_7", "Mul_31"],
                "attr": { "T": { "type": "DT_FLOAT" } }
              },
              "constants": {}
            },
            "name": "tf_op_layer_AddV2_8",
            "inbound_nodes": [
              [
                ["tf_op_layer_AddV2_7", 0, 0, {}],
                ["tf_op_layer_Mul_31", 0, 0, {}]
              ]
            ]
          },
          {
            "class_name": "Conv2D",
            "config": {
              "name": "conv2d_32",
              "trainable": true,
              "dtype": "float32",
              "filters": 128,
              "kernel_size": [1, 1],
              "strides": [1, 1],
              "padding": "same",
              "data_format": "channels_last",
              "dilation_rate": [1, 1],
              "groups": 1,
              "activation": "linear",
              "use_bias": false,
              "kernel_initializer": {
                "class_name": "RandomNormal",
                "config": { "mean": 0.0, "stddev": 0.01, "seed": null }
              },
              "bias_initializer": {
                "class_name": "Constant",
                "config": { "value": 0.0 }
              },
              "kernel_regularizer": {
                "class_name": "L1L2",
                "config": { "l2": 0.0005000000237487257 }
              },
              "bias_regularizer": null,
              "activity_regularizer": null,
              "kernel_constraint": null,
              "bias_constraint": null
            },
            "name": "conv2d_32",
            "inbound_nodes": [[["tf_op_layer_AddV2_8", 0, 0, {}]]]
          },
          {
            "class_name": "BatchNormalization",
            "config": {
              "name": "batch_normalization_32",
              "trainable": true,
              "dtype": "float32",
              "axis": [3],
              "momentum": 0.99,
              "epsilon": 0.001,
              "center": true,
              "scale": true,
              "beta_initializer": { "class_name": "Zeros", "config": {} },
              "gamma_initializer": { "class_name": "Ones", "config": {} },
              "moving_mean_initializer": {
                "class_name": "Zeros",
                "config": {}
              },
              "moving_variance_initializer": {
                "class_name": "Ones",
                "config": {}
              },
              "beta_regularizer": null,
              "gamma_regularizer": null,
              "beta_constraint": null,
              "gamma_constraint": null
            },
            "name": "batch_normalization_32",
            "inbound_nodes": [[["conv2d_32", 0, 0, {}]]]
          },
          {
            "class_name": "TensorFlowOpLayer104",
            "config": {
              "name": "Softplus_32",
              "trainable": true,
              "dtype": "float32",
              "node_def": {
                "name": "Softplus_32",
                "op": "Softplus",
                "input": ["batch_normalization_32/FusedBatchNormV3"],
                "attr": { "T": { "type": "DT_FLOAT" } }
              },
              "constants": {}
            },
            "name": "tf_op_layer_Softplus_32",
            "inbound_nodes": [[["batch_normalization_32", 0, 0, {}]]]
          },
          {
            "class_name": "TensorFlowOpLayer105",
            "config": {
              "name": "Tanh_32",
              "trainable": true,
              "dtype": "float32",
              "node_def": {
                "name": "Tanh_32",
                "op": "Tanh",
                "input": ["Softplus_32"],
                "attr": { "T": { "type": "DT_FLOAT" } }
              },
              "constants": {}
            },
            "name": "tf_op_layer_Tanh_32",
            "inbound_nodes": [[["tf_op_layer_Softplus_32", 0, 0, {}]]]
          },
          {
            "class_name": "TensorFlowOpLayer106",
            "config": {
              "name": "Mul_32",
              "trainable": true,
              "dtype": "float32",
              "node_def": {
                "name": "Mul_32",
                "op": "Mul",
                "input": ["batch_normalization_32/FusedBatchNormV3", "Tanh_32"],
                "attr": { "T": { "type": "DT_FLOAT" } }
              },
              "constants": {}
            },
            "name": "tf_op_layer_Mul_32",
            "inbound_nodes": [
              [
                ["batch_normalization_32", 0, 0, {}],
                ["tf_op_layer_Tanh_32", 0, 0, {}]
              ]
            ]
          },
          {
            "class_name": "Conv2D",
            "config": {
              "name": "conv2d_33",
              "trainable": true,
              "dtype": "float32",
              "filters": 128,
              "kernel_size": [3, 3],
              "strides": [1, 1],
              "padding": "same",
              "data_format": "channels_last",
              "dilation_rate": [1, 1],
              "groups": 1,
              "activation": "linear",
              "use_bias": false,
              "kernel_initializer": {
                "class_name": "RandomNormal",
                "config": { "mean": 0.0, "stddev": 0.01, "seed": null }
              },
              "bias_initializer": {
                "class_name": "Constant",
                "config": { "value": 0.0 }
              },
              "kernel_regularizer": {
                "class_name": "L1L2",
                "config": { "l2": 0.0005000000237487257 }
              },
              "bias_regularizer": null,
              "activity_regularizer": null,
              "kernel_constraint": null,
              "bias_constraint": null
            },
            "name": "conv2d_33",
            "inbound_nodes": [[["tf_op_layer_Mul_32", 0, 0, {}]]]
          },
          {
            "class_name": "BatchNormalization",
            "config": {
              "name": "batch_normalization_33",
              "trainable": true,
              "dtype": "float32",
              "axis": [3],
              "momentum": 0.99,
              "epsilon": 0.001,
              "center": true,
              "scale": true,
              "beta_initializer": { "class_name": "Zeros", "config": {} },
              "gamma_initializer": { "class_name": "Ones", "config": {} },
              "moving_mean_initializer": {
                "class_name": "Zeros",
                "config": {}
              },
              "moving_variance_initializer": {
                "class_name": "Ones",
                "config": {}
              },
              "beta_regularizer": null,
              "gamma_regularizer": null,
              "beta_constraint": null,
              "gamma_constraint": null
            },
            "name": "batch_normalization_33",
            "inbound_nodes": [[["conv2d_33", 0, 0, {}]]]
          },
          {
            "class_name": "TensorFlowOpLayer107",
            "config": {
              "name": "Softplus_33",
              "trainable": true,
              "dtype": "float32",
              "node_def": {
                "name": "Softplus_33",
                "op": "Softplus",
                "input": ["batch_normalization_33/FusedBatchNormV3"],
                "attr": { "T": { "type": "DT_FLOAT" } }
              },
              "constants": {}
            },
            "name": "tf_op_layer_Softplus_33",
            "inbound_nodes": [[["batch_normalization_33", 0, 0, {}]]]
          },
          {
            "class_name": "TensorFlowOpLayer108",
            "config": {
              "name": "Tanh_33",
              "trainable": true,
              "dtype": "float32",
              "node_def": {
                "name": "Tanh_33",
                "op": "Tanh",
                "input": ["Softplus_33"],
                "attr": { "T": { "type": "DT_FLOAT" } }
              },
              "constants": {}
            },
            "name": "tf_op_layer_Tanh_33",
            "inbound_nodes": [[["tf_op_layer_Softplus_33", 0, 0, {}]]]
          },
          {
            "class_name": "TensorFlowOpLayer109",
            "config": {
              "name": "Mul_33",
              "trainable": true,
              "dtype": "float32",
              "node_def": {
                "name": "Mul_33",
                "op": "Mul",
                "input": ["batch_normalization_33/FusedBatchNormV3", "Tanh_33"],
                "attr": { "T": { "type": "DT_FLOAT" } }
              },
              "constants": {}
            },
            "name": "tf_op_layer_Mul_33",
            "inbound_nodes": [
              [
                ["batch_normalization_33", 0, 0, {}],
                ["tf_op_layer_Tanh_33", 0, 0, {}]
              ]
            ]
          },
          {
            "class_name": "TensorFlowOpLayer110",
            "config": {
              "name": "AddV2_9",
              "trainable": true,
              "dtype": "float32",
              "node_def": {
                "name": "AddV2_9",
                "op": "AddV2",
                "input": ["AddV2_8", "Mul_33"],
                "attr": { "T": { "type": "DT_FLOAT" } }
              },
              "constants": {}
            },
            "name": "tf_op_layer_AddV2_9",
            "inbound_nodes": [
              [
                ["tf_op_layer_AddV2_8", 0, 0, {}],
                ["tf_op_layer_Mul_33", 0, 0, {}]
              ]
            ]
          },
          {
            "class_name": "Conv2D",
            "config": {
              "name": "conv2d_34",
              "trainable": true,
              "dtype": "float32",
              "filters": 128,
              "kernel_size": [1, 1],
              "strides": [1, 1],
              "padding": "same",
              "data_format": "channels_last",
              "dilation_rate": [1, 1],
              "groups": 1,
              "activation": "linear",
              "use_bias": false,
              "kernel_initializer": {
                "class_name": "RandomNormal",
                "config": { "mean": 0.0, "stddev": 0.01, "seed": null }
              },
              "bias_initializer": {
                "class_name": "Constant",
                "config": { "value": 0.0 }
              },
              "kernel_regularizer": {
                "class_name": "L1L2",
                "config": { "l2": 0.0005000000237487257 }
              },
              "bias_regularizer": null,
              "activity_regularizer": null,
              "kernel_constraint": null,
              "bias_constraint": null
            },
            "name": "conv2d_34",
            "inbound_nodes": [[["tf_op_layer_AddV2_9", 0, 0, {}]]]
          },
          {
            "class_name": "BatchNormalization",
            "config": {
              "name": "batch_normalization_34",
              "trainable": true,
              "dtype": "float32",
              "axis": [3],
              "momentum": 0.99,
              "epsilon": 0.001,
              "center": true,
              "scale": true,
              "beta_initializer": { "class_name": "Zeros", "config": {} },
              "gamma_initializer": { "class_name": "Ones", "config": {} },
              "moving_mean_initializer": {
                "class_name": "Zeros",
                "config": {}
              },
              "moving_variance_initializer": {
                "class_name": "Ones",
                "config": {}
              },
              "beta_regularizer": null,
              "gamma_regularizer": null,
              "beta_constraint": null,
…
          "dtype": "float32"
        },
        {
          "name": "batch_normalization_36/moving_mean",
          "shape": [128],
          "dtype": "float32"
        },
        {
          "name": "batch_normalization_36/moving_variance",
          "shape": [128],
          "dtype": "float32"
        },
        {
          "name": "batch_normalization_37/gamma",
          "shape": [256],
          "dtype": "float32"
        },
        {
          "name": "batch_normalization_37/beta",
          "shape": [256],
          "dtype": "float32"
        },
        {
          "name": "batch_normalization_37/moving_mean",
          "shape": [256],
          "dtype": "float32"
        },
        {
          "name": "batch_normalization_37/moving_variance",
          "shape": [256],
          "dtype": "float32"
        },
        {
          "name": "batch_normalization_38/gamma",
          "shape": [512],
          "dtype": "float32"
        },
        {
          "name": "batch_normalization_38/beta",
          "shape": [512],
          "dtype": "float32"
        },
        {
          "name": "batch_normalization_38/moving_mean",
          "shape": [512],
          "dtype": "float32"
        },
        {
          "name": "batch_normalization_38/moving_variance",
          "shape": [512],
          "dtype": "float32"
        },
        {
          "name": "batch_normalization_39/gamma",
          "shape": [256],
          "dtype": "float32"
        },
        {
          "name": "batch_normalization_39/beta",
          "shape": [256],
          "dtype": "float32"
        },
        {
          "name": "batch_normalization_39/moving_mean",
          "shape": [256],
          "dtype": "float32"
        },
        {
          "name": "batch_normalization_39/moving_variance",
          "shape": [256],
          "dtype": "float32"
        },
        {
          "name": "batch_normalization_4/gamma",
          "shape": [32],
          "dtype": "float32"
        },
        {
          "name": "batch_normalization_4/beta",
          "shape": [32],
          "dtype": "float32"
        },
        {
          "name": "batch_normalization_4/moving_mean",
          "shape": [32],
          "dtype": "float32"
        },
        {
          "name": "batch_normalization_4/moving_variance",
          "shape": [32],
          "dtype": "float32"
        },
        {
          "name": "batch_normalization_40/gamma",
          "shape": [256],
          "dtype": "float32"
        },
        {
          "name": "batch_normalization_40/beta",
          "shape": [256],
          "dtype": "float32"
        },
        {
          "name": "batch_normalization_40/moving_mean",
          "shape": [256],
          "dtype": "float32"
        },
        {
          "name": "batch_normalization_40/moving_variance",
          "shape": [256],
          "dtype": "float32"
        },
        {
          "name": "batch_normalization_41/gamma",
          "shape": [256],
          "dtype": "float32"
        },
        {
          "name": "batch_normalization_41/beta",
          "shape": [256],
          "dtype": "float32"
        },
        {
          "name": "batch_normalization_41/moving_mean",
          "shape": [256],
          "dtype": "float32"
        },
        {
          "name": "batch_normalization_41/moving_variance",
          "shape": [256],
          "dtype": "float32"
        },
        {
          "name": "batch_normalization_42/gamma",
          "shape": [256],
          "dtype": "float32"
        },
        {
          "name": "batch_normalization_42/beta",
          "shape": [256],
          "dtype": "float32"
        },
        {
          "name": "batch_normalization_42/moving_mean",
          "shape": [256],
          "dtype": "float32"
        },
        {
          "name": "batch_normalization_42/moving_variance",
          "shape": [256],
          "dtype": "float32"
        },
        {
          "name": "batch_normalization_43/gamma",
          "shape": [256],
          "dtype": "float32"
        },
        {
          "name": "batch_normalization_43/beta",
          "shape": [256],
          "dtype": "float32"
        },
        {
          "name": "batch_normalization_43/moving_mean",
          "shape": [256],
          "dtype": "float32"
        },
        {
          "name": "batch_normalization_43/moving_variance",
          "shape": [256],
          "dtype": "float32"
        },
        {
          "name": "batch_normalization_44/gamma",
          "shape": [256],
          "dtype": "float32"
        },
        {
          "name": "batch_normalization_44/beta",
          "shape": [256],
          "dtype": "float32"
        },
        {
          "name": "batch_normalization_44/moving_mean",
          "shape": [256],
          "dtype": "float32"
        },
        {
          "name": "batch_normalization_44/moving_variance",
          "shape": [256],
          "dtype": "float32"
        },
        {
          "name": "batch_normalization_45/gamma",
          "shape": [256],
          "dtype": "float32"
        },
        {
          "name": "batch_normalization_45/beta",
          "shape": [256],
          "dtype": "float32"
        },
        {
          "name": "batch_normalization_45/moving_mean",
          "shape": [256],
          "dtype": "float32"
        },
        {
          "name": "batch_normalization_45/moving_variance",
          "shape": [256],
          "dtype": "float32"
        },
        {
          "name": "batch_normalization_46/gamma",
          "shape": [256],
          "dtype": "float32"
        },
        {
          "name": "batch_normalization_46/beta",
          "shape": [256],
          "dtype": "float32"
        },
        {
          "name": "batch_normalization_46/moving_mean",
          "shape": [256],
          "dtype": "float32"
        },
        {
          "name": "batch_normalization_46/moving_variance",
          "shape": [256],
          "dtype": "float32"
        },
        {
          "name": "batch_normalization_47/gamma",
          "shape": [256],
          "dtype": "float32"
        },
        {
          "name": "batch_normalization_47/beta",
          "shape": [256],
          "dtype": "float32"
        },
        {
          "name": "batch_normalization_47/moving_mean",
          "shape": [256],
          "dtype": "float32"
        },
        {
          "name": "batch_normalization_47/moving_variance",
          "shape": [256],
          "dtype": "float32"
        },
        {
          "name": "batch_normalization_48/gamma",
          "shape": [256],
          "dtype": "float32"
        },
        {
          "name": "batch_normalization_48/beta",
          "shape": [256],
          "dtype": "float32"
        },
        {
          "name": "batch_normalization_48/moving_mean",
          "shape": [256],
          "dtype": "float32"
        },
        {
          "name": "batch_normalization_48/moving_variance",
          "shape": [256],
          "dtype": "float32"
        },
        {
          "name": "batch_normalization_49/gamma",
          "shape": [256],
          "dtype": "float32"
        },
        {
          "name": "batch_normalization_49/beta",
          "shape": [256],
          "dtype": "float32"
        },
        {
          "name": "batch_normalization_49/moving_mean",
          "shape": [256],
          "dtype": "float32"
        },
        {
          "name": "batch_normalization_49/moving_variance",
          "shape": [256],
          "dtype": "float32"
        },
        {
          "name": "batch_normalization_5/gamma",
          "shape": [64],
          "dtype": "float32"
        },
        {
          "name": "batch_normalization_5/beta",
          "shape": [64],
          "dtype": "float32"
        },
        {
          "name": "batch_normalization_5/moving_mean",
          "shape": [64],
          "dtype": "float32"
        },
        {
          "name": "batch_normalization_5/moving_variance",
          "shape": [64],
          "dtype": "float32"
        },
        {
          "name": "batch_normalization_50/gamma",
          "shape": [256],
          "dtype": "float32"
        },
        {
          "name": "batch_normalization_50/beta",
          "shape": [256],
          "dtype": "float32"
        },
        {
          "name": "batch_normalization_50/moving_mean",
          "shape": [256],
          "dtype": "float32"
        },
        {
          "name": "batch_normalization_50/moving_variance",
          "shape": [256],
          "dtype": "float32"
        },
        {
          "name": "batch_normalization_51/gamma",
          "shape": [256],
          "dtype": "float32"
        },
        {
          "name": "batch_normalization_51/beta",
          "shape": [256],
          "dtype": "float32"
        },
        {
          "name": "batch_normalization_51/moving_mean",
          "shape": [256],
          "dtype": "float32"
        },
        {
          "name": "batch_normalization_51/moving_variance",
          "shape": [256],
          "dtype": "float32"
        },
        {
          "name": "batch_normalization_52/gamma",
          "shape": [256],
          "dtype": "float32"
        },
        {
          "name": "batch_normalization_52/beta",
          "shape": [256],
          "dtype": "float32"
        },
        {
          "name": "batch_normalization_52/moving_mean",
          "shape": [256],
          "dtype": "float32"
        },
        {
          "name": "batch_normalization_52/moving_variance",
          "shape": [256],
          "dtype": "float32"
        },
        {
          "name": "batch_normalization_53/gamma",
          "shape": [256],
          "dtype": "float32"
        },
        {
          "name": "batch_normalization_53/beta",
          "shape": [256],
          "dtype": "float32"
        },
        {
          "name": "batch_normalization_53/moving_mean",
          "shape": [256],
          "dtype": "float32"
        },
        {
          "name": "batch_normalization_53/moving_variance",
          "shape": [256],
          "dtype": "float32"
        },
        {
          "name": "batch_normalization_54/gamma",
          "shape": [256],
          "dtype": "float32"
        },
        {
          "name": "batch_normalization_54/beta",
          "shape": [256],
          "dtype": "float32"
        },
        {
          "name": "batch_normalization_54/moving_mean",
          "shape": [256],
          "dtype": "float32"
        },
        {
          "name": "batch_normalization_54/moving_variance",
          "shape": [256],
          "dtype": "float32"
        },
        {
          "name": "batch_normalization_55/gamma",
          "shape": [256],
          "dtype": "float32"
        },
        {
          "name": "batch_normalization_55/beta",
          "shape": [256],
          "dtype": "float32"
        },
        {
          "name": "batch_normalization_55/moving_mean",
          "shape": [256],
          "dtype": "float32"
        },
        {
          "name": "batch_normalization_55/moving_variance",
          "shape": [256],
          "dtype": "float32"
        },
        {
          "name": "batch_normalization_56/gamma",
          "shape": [256],
          "dtype": "float32"
        },
        {
          "name": "batch_normalization_56/beta",
          "shape": [256],
          "dtype": "float32"
        },
        {
          "name": "batch_normalization_56/moving_mean",
          "shape": [256],
          "dtype": "float32"
        },
        {
          "name": "batch_normalization_56/moving_variance",
          "shape": [256],
          "dtype": "float32"
        },
        {
          "name": "batch_normalization_57/gamma",
          "shape": [256],
          "dtype": "float32"
        },
        {
          "name": "batch_normalization_57/beta",
          "shape": [256],
          "dtype": "float32"
        },
        {
          "name": "batch_normalization_57/moving_mean",
          "shape": [256],
          "dtype": "float32"
        },
        {
          "name": "batch_normalization_57/moving_variance",
          "shape": [256],
          "dtype": "float32"
        },
        {
          "name": "batch_normalization_58/gamma",
          "shape": [512],
          "dtype": "float32"
        },
        {
          "name": "batch_normalization_58/beta",
          "shape": [512],
          "dtype": "float32"
        },
        {
          "name": "batch_normalization_58/moving_mean",
          "shape": [512],
          "dtype": "float32"
        },
        {
          "name": "batch_normalization_58/moving_variance",
          "shape": [512],
          "dtype": "float32"
        },
        {
          "name": "batch_normalization_59/gamma",
          "shape": [1024],
          "dtype": "float32"
        },
        {
          "name": "batch_normalization_59/beta",
          "shape": [1024],
          "dtype": "float32"
        },
        {
          "name": "batch_normalization_59/moving_mean",
          "shape": [1024],
          "dtype": "float32"
        },
        {
          "name": "batch_normalization_59/moving_variance",
          "shape": [1024],
          "dtype": "float32"
        },
        {
          "name": "batch_normalization_6/gamma",
          "shape": [64],
          "dtype": "float32"
        },
        {
          "name": "batch_normalization_6/beta",
          "shape": [64],
          "dtype": "float32"
        },
        {
          "name": "batch_normalization_6/moving_mean",
          "shape": [64],
          "dtype": "float32"
        },
        {
          "name": "batch_normalization_6/moving_variance",
          "shape": [64],
          "dtype": "float32"
        },
        {
          "name": "batch_normalization_60/gamma",
          "shape": [512],
          "dtype": "float32"
        },
        {
          "name": "batch_normalization_60/beta",
          "shape": [512],
          "dtype": "float32"
        },
        {
          "name": "batch_normalization_60/moving_mean",
          "shape": [512],
          "dtype": "float32"
        },
        {
          "name": "batch_normalization_60/moving_variance",
          "shape": [512],
          "dtype": "float32"
        },
        {
          "name": "batch_normalization_61/gamma",
          "shape": [512],
          "dtype": "float32"
        },
        {
          "name": "batch_normalization_61/beta",
          "shape": [512],
          "dtype": "float32"
        },
        {
          "name": "batch_normalization_61/moving_mean",
          "shape": [512],
          "dtype": "float32"
        },
        {
          "name": "batch_normalization_61/moving_variance",
          "shape": [512],
          "dtype": "float32"
        },
        {
          "name": "batch_normalization_62/gamma",
          "shape": [512],
          "dtype": "float32"
        },
        {
          "name": "batch_normalization_62/beta",
          "shape": [512],
          "dtype": "float32"
        },
        {
          "name": "batch_normalization_62/moving_mean",
          "shape": [512],
          "dtype": "float32"
        },
        {
          "name": "batch_normalization_62/moving_variance",
          "shape": [512],
          "dtype": "float32"
        },
        {
          "name": "batch_normalization_63/gamma",
          "shape": [512],
          "dtype": "float32"
        },
        {
          "name": "batch_normalization_63/beta",
          "shape": [512],
          "dtype": "float32"
        },
        {
          "name": "batch_normalization_63/moving_mean",
          "shape": [512],
          "dtype": "float32"
        },
        {
          "name": "batch_normalization_63/moving_variance",
          "shape": [512],
          "dtype": "float32"
        },
        {
          "name": "batch_normalization_64/gamma",
          "shape": [512],
          "dtype": "float32"
        },
        {
          "name": "batch_normalization_64/beta",
          "shape": [512],
          "dtype": "float32"
        },
        {
          "name": "batch_normalization_64/moving_mean",
          "shape": [512],
          "dtype": "float32"
        },
        {
          "name": "batch_normalization_64/moving_variance",
          "shape": [512],
          "dtype": "float32"
        },
        {
          "name": "batch_normalization_65/gamma",
          "shape": [512],
          "dtype": "float32"
        },
        {
          "name": "batch_normalization_65/beta",
          "shape": [512],
          "dtype": "float32"
        },
        {
          "name": "batch_normalization_65/moving_mean",
          "shape": [512],
          "dtype": "float32"
        },
        {
          "name": "batch_normalization_65/moving_variance",
          "shape": [512],
          "dtype": "float32"
        },
        {
          "name": "batch_normalization_66/gamma",
          "shape": [512],
          "dtype": "float32"
        },
        {
          "name": "batch_normalization_66/beta",
          "shape": [512],
          "dtype": "float32"
        },
        {
          "name": "batch_normalization_66/moving_mean",
          "shape": [512],
          "dtype": "float32"
        },
        {
          "name": "batch_normalization_66/moving_variance",
          "shape": [512],
          "dtype": "float32"
        },
        {
          "name": "batch_normalization_67/gamma",
          "shape": [512],
          "dtype": "float32"
        },
        {
          "name": "batch_normalization_67/beta",
          "shape": [512],
          "dtype": "float32"
        },
        {
          "name": "batch_normalization_67/moving_mean",
          "shape": [512],
          "dtype": "float32"
        },
        {
          "name": "batch_normalization_67/moving_variance",
          "shape": [512],
          "dtype": "float32"
        },
        {
          "name": "batch_normalization_68/gamma",
          "shape": [512],
          "dtype": "float32"
        },
        {
          "name": "batch_normalization_68/beta",
          "shape": [512],
          "dtype": "float32"
        },
        {
          "name": "batch_normalization_68/moving_mean",
          "shape": [512],
          "dtype": "float32"
        },
        {
          "name": "batch_normalization_68/moving_variance",
          "shape": [512],
          "dtype": "float32"
        },
        {
          "name": "batch_normalization_69/gamma",
          "shape": [512],
          "dtype": "float32"
        },
        {
          "name": "batch_normalization_69/beta",
          "shape": [512],
          "dtype": "float32"
        },
        {
          "name": "batch_normalization_69/moving_mean",
          "shape": [512],
          "dtype": "float32"
        },
        {
          "name": "batch_normalization_69/moving_variance",
          "shape": [512],
          "dtype": "float32"
        },
        {
          "name": "batch_normalization_7/gamma",
          "shape": [64],
          "dtype": "float32"
        },
        {
          "name": "batch_normalization_7/beta",
          "shape": [64],
          "dtype": "float32"
        },
        {
          "name": "batch_normalization_7/moving_mean",
          "shape": [64],
          "dtype": "float32"
        },
        {
          "name": "batch_normalization_7/moving_variance",
          "shape": [64],
          "dtype": "float32"
        },
        {
          "name": "batch_normalization_70/gamma",
          "shape": [512],
          "dtype": "float32"
        },
        {
          "name": "batch_normalization_70/beta",
          "shape": [512],
          "dtype": "float32"
        },
        {
          "name": "batch_normalization_70/moving_mean",
          "shape": [512],
          "dtype": "float32"
        },
        {
          "name": "batch_normalization_70/moving_variance",
          "shape": [512],
          "dtype": "float32"
        },
        {
          "name": "batch_normalization_71/gamma",
          "shape": [1024],
          "dtype": "float32"
        },
        {
          "name": "batch_normalization_71/beta",
          "shape": [1024],
          "dtype": "float32"
        },
        {
          "name": "batch_normalization_71/moving_mean",
          "shape": [1024],
          "dtype": "float32"
        },
        {
          "name": "batch_normalization_71/moving_variance",
          "shape": [1024],
          "dtype": "float32"
        },
        {
          "name": "batch_normalization_72/gamma",
          "shape": [512],
          "dtype": "float32"
        },
        {
          "name": "batch_normalization_72/beta",
          "shape": [512],
          "dtype": "float32"
        },
        {
          "name": "batch_normalization_72/moving_mean",
          "shape": [512],
          "dtype": "float32"
        },
        {
          "name": "batch_normalization_72/moving_variance",
          "shape": [512],
          "dtype": "float32"
        },
        {
          "name": "batch_normalization_73/gamma",
          "shape": [1024],
          "dtype": "float32"
        },
        {
          "name": "batch_normalization_73/beta",
          "shape": [1024],
          "dtype": "float32"
        },
        {
          "name": "batch_normalization_73/moving_mean",
          "shape": [1024],
          "dtype": "float32"
        },
        {
          "name": "batch_normalization_73/moving_variance",
          "shape": [1024],
          "dtype": "float32"
        },
        {
          "name": "batch_normalization_74/gamma",
          "shape": [512],
          "dtype": "float32"
        },
        {
          "name": "batch_normalization_74/beta",
          "shape": [512],
          "dtype": "float32"
        },
        {
          "name": "batch_normalization_74/moving_mean",
          "shape": [512],
          "dtype": "float32"
        },
        {
          "name": "batch_normalization_74/moving_variance",
          "shape": [512],
          "dtype": "float32"
        },
        {
          "name": "batch_normalization_75/gamma",
          "shape": [512],
          "dtype": "float32"
        },
        {
          "name": "batch_normalization_75/beta",
          "shape": [512],
          "dtype": "float32"
        },
        {
          "name": "batch_normalization_75/moving_mean",
          "shape": [512],
          "dtype": "float32"
        },
        {
          "name": "batch_normalization_75/moving_variance",
          "shape": [512],
          "dtype": "float32"
        },
        {
          "name": "batch_normalization_76/gamma",
          "shape": [1024],
          "dtype": "float32"
        },
        {
          "name": "batch_normalization_76/beta",
          "shape": [1024],
          "dtype": "float32"
        },
        {
          "name": "batch_normalization_76/moving_mean",
          "shape": [1024],
          "dtype": "float32"
        },
        {
          "name": "batch_normalization_76/moving_variance",
          "shape": [1024],
          "dtype": "float32"
        },
        {
          "name": "batch_normalization_77/gamma",
          "shape": [512],
          "dtype": "float32"
        },
        {
          "name": "batch_normalization_77/beta",
          "shape": [512],
          "dtype": "float32"
        },
        {
          "name": "batch_normalization_77/moving_mean",
          "shape": [512],
          "dtype": "float32"
        },
        {
          "name": "batch_normalization_77/moving_variance",
          "shape": [512],
          "dtype": "float32"
        },
        {
          "name": "batch_normalization_78/gamma",
          "shape": [256],
          "dtype": "float32"
        },
        {
          "name": "batch_normalization_78/beta",
          "shape": [256],
          "dtype": "float32"
        },
        {
          "name": "batch_normalization_78/moving_mean",
          "shape": [256],
          "dtype": "float32"
        },
        {
          "name": "batch_normalization_78/moving_variance",
          "shape": [256],
          "dtype": "float32"
        },
        {
          "name": "batch_normalization_79/gamma",
          "shape": [256],
          "dtype": "float32"
        },
        {
          "name": "batch_normalization_79/beta",
          "shape": [256],
          "dtype": "float32"
        },
        {
          "name": "batch_normalization_79/moving_mean",
          "shape": [256],
          "dtype": "float32"
        },
        {
          "name": "batch_normalization_79/moving_variance",
          "shape": [256],
          "dtype": "float32"
        },
        {
          "name": "batch_normalization_8/gamma",
          "shape": [128],
          "dtype": "float32"
        },
        {
          "name": "batch_normalization_8/beta",
          "shape": [128],
          "dtype": "float32"
        },
        {
          "name": "batch_normalization_8/moving_mean",
          "shape": [128],
          "dtype": "float32"
        },
        {
          "name": "batch_normalization_8/moving_variance",
          "shape": [128],
          "dtype": "float32"
        },
        {
          "name": "batch_normalization_80/gamma",
          "shape": [256],
          "dtype": "float32"
        },
        {
          "name": "batch_normalization_80/beta",
          "shape": [256],
          "dtype": "float32"
        },
        {
          "name": "batch_normalization_80/moving_mean",
          "shape": [256],
          "dtype": "float32"
        },
        {
          "name": "batch_normalization_80/moving_variance",
          "shape": [256],
          "dtype": "float32"
        },
        {
          "name": "batch_normalization_81/gamma",
          "shape": [512],
          "dtype": "float32"
        },
        {
          "name": "batch_normalization_81/beta",
          "shape": [512],
          "dtype": "float32"
        },
        {
          "name": "batch_normalization_81/moving_mean",
          "shape": [512],
          "dtype": "float32"
        },
        {
          "name": "batch_normalization_81/moving_variance",
          "shape": [512],
          "dtype": "float32"
        },
        {
          "name": "batch_normalization_82/gamma",
          "shape": [256],
          "dtype": "float32"
        },
        {
          "name": "batch_normalization_82/beta",
          "shape": [256],
          "dtype": "float32"
        },
        {
          "name": "batch_normalization_82/moving_mean",
          "shape": [256],
          "dtype": "float32"
        },
        {
          "name": "batch_normalization_82/moving_variance",
          "shape": [256],
          "dtype": "float32"
        },
        {
          "name": "batch_normalization_83/gamma",
          "shape": [512],
          "dtype": "float32"
        },
        {
          "name": "batch_normalization_83/beta",
          "shape": [512],
          "dtype": "float32"
        },
        {
          "name": "batch_normalization_83/moving_mean",
          "shape": [512],
          "dtype": "float32"
        },
        {
          "name": "batch_normalization_83/moving_variance",
          "shape": [512],
          "dtype": "float32"
        },
        {
          "name": "batch_normalization_84/gamma",
          "shape": [256],
          "dtype": "float32"
        },
        {
          "name": "batch_normalization_84/beta",
          "shape": [256],
          "dtype": "float32"
        },
        {
          "name": "batch_normalization_84/moving_mean",
          "shape": [256],
          "dtype": "float32"
        },
        {
          "name": "batch_normalization_84/moving_variance",
          "shape": [256],
          "dtype": "float32"
        },
        {
          "name": "batch_normalization_85/gamma",
          "shape": [128],
          "dtype": "float32"
        },
        {
          "name": "batch_normalization_85/beta",
          "shape": [128],
          "dtype": "float32"
        },
        {
          "name": "batch_normalization_85/moving_mean",
          "shape": [128],
          "dtype": "float32"
        },
        {
          "name": "batch_normalization_85/moving_variance",
          "shape": [128],
          "dtype": "float32"
        },
        {
          "name": "batch_normalization_86/gamma",
          "shape": [128],
          "dtype": "float32"
        },
        {
          "name": "batch_normalization_86/beta",
          "shape": [128],
          "dtype": "float32"
        },
        {
          "name": "batch_normalization_86/moving_mean",
          "shape": [128],
          "dtype": "float32"
        },
        {
          "name": "batch_normalization_86/moving_variance",
          "shape": [128],
          "dtype": "float32"
        },
        {
          "name": "batch_normalization_87/gamma",
          "shape": [128],
          "dtype": "float32"
        },
        {
          "name": "batch_normalization_87/beta",
          "shape": [128],
          "dtype": "float32"
        },
        {
          "name": "batch_normalization_87/moving_mean",
          "shape": [128],
          "dtype": "float32"
        },
        {
          "name": "batch_normalization_87/moving_variance",
          "shape": [128],
          "dtype": "float32"
        },
        {
          "name": "batch_normalization_88/gamma",
          "shape": [256],
          "dtype": "float32"
        },
        {
          "name": "batch_normalization_88/beta",
          "shape": [256],
          "dtype": "float32"
        },
        {
          "name": "batch_normalization_88/moving_mean",
          "shape": [256],
          "dtype": "float32"
        },
        {
          "name": "batch_normalization_88/moving_variance",
          "shape": [256],
          "dtype": "float32"
        },
        {
          "name": "batch_normalization_89/gamma",
          "shape": [128],
          "dtype": "float32"
        },
        {
          "name": "batch_normalization_89/beta",
          "shape": [128],
          "dtype": "float32"
        },
        {
          "name": "batch_normalization_89/moving_mean",
          "shape": [128],
          "dtype": "float32"
        },
        {
          "name": "batch_normalization_89/moving_variance",
          "shape": [128],
          "dtype": "float32"
        },
        {
          "name": "batch_normalization_9/gamma",
          "shape": [64],
          "dtype": "float32"
        },
        {
          "name": "batch_normalization_9/beta",
          "shape": [64],
          "dtype": "float32"
        },
        {
          "name": "batch_normalization_9/moving_mean",
          "shape": [64],
          "dtype": "float32"
        },
        {
          "name": "batch_normalization_9/moving_variance",
          "shape": [64],
          "dtype": "float32"
        },
        {
          "name": "batch_normalization_90/gamma",
          "shape": [256],
          "dtype": "float32"
        },
        {
          "name": "batch_normalization_90/beta",
          "shape": [256],
          "dtype": "float32"
        },
        {
          "name": "batch_normalization_90/moving_mean",
          "shape": [256],
          "dtype": "float32"
        },
        {
          "name": "batch_normalization_90/moving_variance",
          "shape": [256],
          "dtype": "float32"
        },
        {
          "name": "batch_normalization_91/gamma",
          "shape": [128],
          "dtype": "float32"
        },
        {
          "name": "batch_normalization_91/beta",
          "shape": [128],
          "dtype": "float32"
        },
        {
          "name": "batch_normalization_91/moving_mean",
          "shape": [128],
          "dtype": "float32"
        },
        {
          "name": "batch_normalization_91/moving_variance",
          "shape": [128],
          "dtype": "float32"
        },
        {
          "name": "batch_normalization_92/gamma",
          "shape": [256],
          "dtype": "float32"
        },
        {
          "name": "batch_normalization_92/beta",
          "shape": [256],
          "dtype": "float32"
        },
        {
          "name": "batch_normalization_92/moving_mean",
          "shape": [256],
          "dtype": "float32"
        },
        {
          "name": "batch_normalization_92/moving_variance",
          "shape": [256],
          "dtype": "float32"
        },
        {
          "name": "batch_normalization_93/gamma",
          "shape": [256],
          "dtype": "float32"
        },
        {
          "name": "batch_normalization_93/beta",
          "shape": [256],
          "dtype": "float32"
        },
        {
          "name": "batch_normalization_93/moving_mean",
          "shape": [256],
          "dtype": "float32"
        },
        {
          "name": "batch_normalization_93/moving_variance",
          "shape": [256],
          "dtype": "float32"
        },
        {
          "name": "batch_normalization_94/gamma",
          "shape": [256],
          "dtype": "float32"
        },
        {
          "name": "batch_normalization_94/beta",
          "shape": [256],
          "dtype": "float32"
        },
        {
          "name": "batch_normalization_94/moving_mean",
          "shape": [256],
          "dtype": "float32"
        },
        {
          "name": "batch_normalization_94/moving_variance",
          "shape": [256],
          "dtype": "float32"
        },
        {
          "name": "batch_normalization_95/gamma",
          "shape": [512],
          "dtype": "float32"
        },
        {
          "name": "batch_normalization_95/beta",
          "shape": [512],
          "dtype": "float32"
        },
        {
          "name": "batch_normalization_95/moving_mean",
          "shape": [512],
          "dtype": "float32"
        },
        {
          "name": "batch_normalization_95/moving_variance",
          "shape": [512],
          "dtype": "float32"
        },
        {
          "name": "batch_normalization_96/gamma",
          "shape": [256],
          "dtype": "float32"
        },
        {
          "name": "batch_normalization_96/beta",
          "shape": [256],
          "dtype": "float32"
        },
        {
          "name": "batch_normalization_96/moving_mean",
          "shape": [256],
          "dtype": "float32"
        },
        {
          "name": "batch_normalization_96/moving_variance",
          "shape": [256],
          "dtype": "float32"
        },
        {
          "name": "batch_normalization_97/gamma",
          "shape": [512],
          "dtype": "float32"
        },
        {
          "name": "batch_normalization_97/beta",
          "shape": [512],
          "dtype": "float32"
        },
        {
          "name": "batch_normalization_97/moving_mean",
          "shape": [512],
          "dtype": "float32"
        },
        {
          "name": "batch_normalization_97/moving_variance",
          "shape": [512],
          "dtype": "float32"
        },
        {
          "name": "batch_normalization_98/gamma",
          "shape": [256],
          "dtype": "float32"
        },
        {
          "name": "batch_normalization_98/beta",
          "shape": [256],
          "dtype": "float32"
        },
        {
          "name": "batch_normalization_98/moving_mean",
          "shape": [256],
          "dtype": "float32"
        },
        {
          "name": "batch_normalization_98/moving_variance",
          "shape": [256],
          "dtype": "float32"
        },
        {
          "name": "batch_normalization_99/gamma",
          "shape": [512],
          "dtype": "float32"
        },
        {
          "name": "batch_normalization_99/beta",
          "shape": [512],
          "dtype": "float32"
        },
        {
          "name": "batch_normalization_99/moving_mean",
          "shape": [512],
          "dtype": "float32"
        },
        {
          "name": "batch_normalization_99/moving_variance",
          "shape": [512],
          "dtype": "float32"
        },
        { "name": "conv2d/kernel", "shape": [3, 3, 3, 32], "dtype": "float32" },
        {
          "name": "conv2d_1/kernel",
          "shape": [3, 3, 32, 64],
          "dtype": "float32"
        },
        {
          "name": "conv2d_10/kernel",
          "shape": [1, 1, 128, 64],
          "dtype": "float32"
        },
        {
          "name": "conv2d_100/kernel",
          "shape": [3, 3, 256, 512],
          "dtype": "float32"
        },
        {
          "name": "conv2d_101/kernel",
          "shape": [1, 1, 512, 18],
          "dtype": "float32"
        },
        { "name": "conv2d_101/bias", "shape": [18], "dtype": "float32" },
        {
          "name": "conv2d_102/kernel",
          "shape": [3, 3, 256, 512],
          "dtype": "float32"
        },
        {
          "name": "conv2d_103/kernel",
          "shape": [1, 1, 1024, 512],
          "dtype": "float32"
        },
        {
          "name": "conv2d_104/kernel",
          "shape": [3, 3, 512, 1024],
          "dtype": "float32"
        },
        {
          "name": "conv2d_105/kernel",
          "shape": [1, 1, 1024, 512],
          "dtype": "float32"
        },
        {
          "name": "conv2d_106/kernel",
          "shape": [3, 3, 512, 1024],
          "dtype": "float32"
        },
        {
          "name": "conv2d_107/kernel",
          "shape": [1, 1, 1024, 512],
          "dtype": "float32"
        },
        {
          "name": "conv2d_108/kernel",
          "shape": [3, 3, 512, 1024],
          "dtype": "float32"
        },
        {
          "name": "conv2d_109/kernel",
          "shape": [1, 1, 1024, 18],
          "dtype": "float32"
        },
        { "name": "conv2d_109/bias", "shape": [18], "dtype": "float32" },
        {
          "name": "conv2d_11/kernel",
          "shape": [1, 1, 64, 64],
          "dtype": "float32"
        },
        {
          "name": "conv2d_12/kernel",
          "shape": [3, 3, 64, 64],
          "dtype": "float32"
        },
        {
          "name": "conv2d_13/kernel",
          "shape": [1, 1, 64, 64],
          "dtype": "float32"
        },
        {
          "name": "conv2d_14/kernel",
          "shape": [3, 3, 64, 64],
          "dtype": "float32"
        },
        {
          "name": "conv2d_15/kernel",
          "shape": [1, 1, 64, 64],
          "dtype": "float32"
        },
        {
          "name": "conv2d_16/kernel",
          "shape": [1, 1, 128, 128],
          "dtype": "float32"
        },
        {
          "name": "conv2d_17/kernel",
          "shape": [3, 3, 128, 256],
          "dtype": "float32"
        },
        {
          "name": "conv2d_18/kernel",
          "shape": [1, 1, 256, 128],
          "dtype": "float32"
        },
        {
          "name": "conv2d_19/kernel",
          "shape": [1, 1, 256, 128],
          "dtype": "float32"
        },
        {
          "name": "conv2d_2/kernel",
          "shape": [1, 1, 64, 64],
          "dtype": "float32"
        },
        {
          "name": "conv2d_20/kernel",
          "shape": [1, 1, 128, 128],
          "dtype": "float32"
        },
        {
          "name": "conv2d_21/kernel",
          "shape": [3, 3, 128, 128],
          "dtype": "float32"
        },
        {
          "name": "conv2d_22/kernel",
          "shape": [1, 1, 128, 128],
          "dtype": "float32"
        },
        {
          "name": "conv2d_23/kernel",
          "shape": [3, 3, 128, 128],
          "dtype": "float32"
        },
        {
          "name": "conv2d_24/kernel",
          "shape": [1, 1, 128, 128],
          "dtype": "float32"
        },
        {
          "name": "conv2d_25/kernel",
          "shape": [3, 3, 128, 128],
          "dtype": "float32"
        },
        {
          "name": "conv2d_26/kernel",
          "shape": [1, 1, 128, 128],
          "dtype": "float32"
        },
        {
          "name": "conv2d_27/kernel",
          "shape": [3, 3, 128, 128],
          "dtype": "float32"
        },
        {
          "name": "conv2d_28/kernel",
          "shape": [1, 1, 128, 128],
          "dtype": "float32"
        },
        {
          "name": "conv2d_29/kernel",
          "shape": [3, 3, 128, 128],
          "dtype": "float32"
        },
        {
          "name": "conv2d_3/kernel",
          "shape": [1, 1, 64, 64],
          "dtype": "float32"
        },
        {
          "name": "conv2d_30/kernel",
          "shape": [1, 1, 128, 128],
          "dtype": "float32"
        },
        {
          "name": "conv2d_31/kernel",
          "shape": [3, 3, 128, 128],
          "dtype": "float32"
        },
        {
          "name": "conv2d_32/kernel",
          "shape": [1, 1, 128, 128],
          "dtype": "float32"
        },
        {
          "name": "conv2d_33/kernel",
          "shape": [3, 3, 128, 128],
          "dtype": "float32"
        },
        {
          "name": "conv2d_34/kernel",
          "shape": [1, 1, 128, 128],
          "dtype": "float32"
        },
        {
          "name": "conv2d_35/kernel",
          "shape": [3, 3, 128, 128],
          "dtype": "float32"
        },
        {
          "name": "conv2d_36/kernel",
          "shape": [1, 1, 128, 128],
          "dtype": "float32"
        },
        {
          "name": "conv2d_37/kernel",
          "shape": [1, 1, 256, 256],
          "dtype": "float32"
        },
        {
          "name": "conv2d_38/kernel",
          "shape": [3, 3, 256, 512],
          "dtype": "float32"
        },
        {
          "name": "conv2d_39/kernel",
          "shape": [1, 1, 512, 256],
          "dtype": "float32"
        },
        {
          "name": "conv2d_4/kernel",
          "shape": [1, 1, 64, 32],
          "dtype": "float32"
        },
        {
          "name": "conv2d_40/kernel",
          "shape": [1, 1, 512, 256],
          "dtype": "float32"
        },
        {
          "name": "conv2d_41/kernel",
          "shape": [1, 1, 256, 256],
          "dtype": "float32"
        },
        {
          "name": "conv2d_42/kernel",
          "shape": [3, 3, 256, 256],
          "dtype": "float32"
        },
        {
          "name": "conv2d_43/kernel",
          "shape": [1, 1, 256, 256],
          "dtype": "float32"
        },
        {
          "name": "conv2d_44/kernel",
          "shape": [3, 3, 256, 256],
          "dtype": "float32"
        },
        {
          "name": "conv2d_45/kernel",
          "shape": [1, 1, 256, 256],
          "dtype": "float32"
        },
        {
          "name": "conv2d_46/kernel",
          "shape": [3, 3, 256, 256],
          "dtype": "float32"
        },
        {
          "name": "conv2d_47/kernel",
          "shape": [1, 1, 256, 256],
          "dtype": "float32"
        },
        {
          "name": "conv2d_48/kernel",
          "shape": [3, 3, 256, 256],
          "dtype": "float32"
        },
        {
          "name": "conv2d_49/kernel",
          "shape": [1, 1, 256, 256],
          "dtype": "float32"
        },
        {
          "name": "conv2d_5/kernel",
          "shape": [3, 3, 32, 64],
          "dtype": "float32"
        },
        {
          "name": "conv2d_50/kernel",
          "shape": [3, 3, 256, 256],
          "dtype": "float32"
        },
        {
          "name": "conv2d_51/kernel",
          "shape": [1, 1, 256, 256],
          "dtype": "float32"
        },
        {
          "name": "conv2d_52/kernel",
          "shape": [3, 3, 256, 256],
          "dtype": "float32"
        },
        {
          "name": "conv2d_53/kernel",
          "shape": [1, 1, 256, 256],
          "dtype": "float32"
        },
        {
          "name": "conv2d_54/kernel",
          "shape": [3, 3, 256, 256],
          "dtype": "float32"
        },
        {
          "name": "conv2d_55/kernel",
          "shape": [1, 1, 256, 256],
          "dtype": "float32"
        },
        {
          "name": "conv2d_56/kernel",
          "shape": [3, 3, 256, 256],
          "dtype": "float32"
        },
        {
          "name": "conv2d_57/kernel",
          "shape": [1, 1, 256, 256],
          "dtype": "float32"
        },
        {
          "name": "conv2d_58/kernel",
          "shape": [1, 1, 512, 512],
          "dtype": "float32"
        },
        {
          "name": "conv2d_59/kernel",
          "shape": [3, 3, 512, 1024],
          "dtype": "float32"
        },
        {
          "name": "conv2d_6/kernel",
          "shape": [1, 1, 64, 64],
          "dtype": "float32"
        },
        {
          "name": "conv2d_60/kernel",
          "shape": [1, 1, 1024, 512],
          "dtype": "float32"
        },
        {
          "name": "conv2d_61/kernel",
          "shape": [1, 1, 1024, 512],
          "dtype": "float32"
        },
        {
          "name": "conv2d_62/kernel",
          "shape": [1, 1, 512, 512],
          "dtype": "float32"
        },
        {
          "name": "conv2d_63/kernel",
          "shape": [3, 3, 512, 512],
          "dtype": "float32"
        },
        {
          "name": "conv2d_64/kernel",
          "shape": [1, 1, 512, 512],
          "dtype": "float32"
        },
        {
          "name": "conv2d_65/kernel",
          "shape": [3, 3, 512, 512],
          "dtype": "float32"
        },
        {
          "name": "conv2d_66/kernel",
          "shape": [1, 1, 512, 512],
          "dtype": "float32"
        },
        {
          "name": "conv2d_67/kernel",
          "shape": [3, 3, 512, 512],
          "dtype": "float32"
        },
        {
          "name": "conv2d_68/kernel",
          "shape": [1, 1, 512, 512],
          "dtype": "float32"
        },
        {
          "name": "conv2d_69/kernel",
          "shape": [3, 3, 512, 512],
          "dtype": "float32"
        },
        {
          "name": "conv2d_7/kernel",
          "shape": [1, 1, 128, 64],
          "dtype": "float32"
        },
        {
          "name": "conv2d_70/kernel",
          "shape": [1, 1, 512, 512],
          "dtype": "float32"
        },
        {
          "name": "conv2d_71/kernel",
          "shape": [1, 1, 1024, 1024],
          "dtype": "float32"
        },
        {
          "name": "conv2d_72/kernel",
          "shape": [1, 1, 1024, 512],
          "dtype": "float32"
        },
        {
          "name": "conv2d_73/kernel",
          "shape": [3, 3, 512, 1024],
          "dtype": "float32"
        },
        {
          "name": "conv2d_74/kernel",
          "shape": [1, 1, 1024, 512],
          "dtype": "float32"
        },
        {
          "name": "conv2d_75/kernel",
          "shape": [1, 1, 2048, 512],
          "dtype": "float32"
        },
        {
          "name": "conv2d_76/kernel",
          "shape": [3, 3, 512, 1024],
          "dtype": "float32"
        },
        {
          "name": "conv2d_77/kernel",
          "shape": [1, 1, 1024, 512],
          "dtype": "float32"
        },
        {
          "name": "conv2d_78/kernel",
          "shape": [1, 1, 512, 256],
          "dtype": "float32"
        },
        {
          "name": "conv2d_79/kernel",
          "shape": [1, 1, 512, 256],
          "dtype": "float32"
        },
        {
          "name": "conv2d_8/kernel",
          "shape": [3, 3, 64, 128],
          "dtype": "float32"
        },
        {
          "name": "conv2d_80/kernel",
          "shape": [1, 1, 512, 256],
          "dtype": "float32"
        },
        {
          "name": "conv2d_81/kernel",
          "shape": [3, 3, 256, 512],
          "dtype": "float32"
        },
        {
          "name": "conv2d_82/kernel",
          "shape": [1, 1, 512, 256],
          "dtype": "float32"
        },
        {
          "name": "conv2d_83/kernel",
          "shape": [3, 3, 256, 512],
          "dtype": "float32"
        },
        {
          "name": "conv2d_84/kernel",
          "shape": [1, 1, 512, 256],
          "dtype": "float32"
        },
        {
          "name": "conv2d_85/kernel",
          "shape": [1, 1, 256, 128],
          "dtype": "float32"
        },
        {
          "name": "conv2d_86/kernel",
          "shape": [1, 1, 256, 128],
          "dtype": "float32"
        },
        {
          "name": "conv2d_87/kernel",
          "shape": [1, 1, 256, 128],
          "dtype": "float32"
        },
        {
          "name": "conv2d_88/kernel",
          "shape": [3, 3, 128, 256],
          "dtype": "float32"
        },
        {
          "name": "conv2d_89/kernel",
          "shape": [1, 1, 256, 128],
          "dtype": "float32"
        },
        {
          "name": "conv2d_9/kernel",
          "shape": [1, 1, 128, 64],
          "dtype": "float32"
        },
        {
          "name": "conv2d_90/kernel",
          "shape": [3, 3, 128, 256],
          "dtype": "float32"
        },
        {
          "name": "conv2d_91/kernel",
          "shape": [1, 1, 256, 128],
          "dtype": "float32"
        },
        {
          "name": "conv2d_92/kernel",
          "shape": [3, 3, 128, 256],
          "dtype": "float32"
        },
        {
          "name": "conv2d_93/kernel",
          "shape": [1, 1, 256, 18],
          "dtype": "float32"
        },
        { "name": "conv2d_93/bias", "shape": [18], "dtype": "float32" },
        {
          "name": "conv2d_94/kernel",
          "shape": [3, 3, 128, 256],
          "dtype": "float32"
        },
        {
          "name": "conv2d_95/kernel",
          "shape": [1, 1, 512, 256],
          "dtype": "float32"
        },
        {
          "name": "conv2d_96/kernel",
          "shape": [3, 3, 256, 512],
          "dtype": "float32"
        },
        {
          "name": "conv2d_97/kernel",
          "shape": [1, 1, 512, 256],
          "dtype": "float32"
        },
        {
          "name": "conv2d_98/kernel",
          "shape": [3, 3, 256, 512],
          "dtype": "float32"
        },
        {
          "name": "conv2d_99/kernel",
          "shape": [1, 1, 512, 256],
          "dtype": "float32"
        }
      ]
    }
  ]
}
